NLE_A2C/netState.pkl (torch, 166656 bytes, 9 tensors)

body.0.weight f4 [64, 229]
-0.024963751 0.021064077 -0.0688138 -0.03552805 0.04607895 0.02231947 0.007335109 0.057161655
0.03661479 -0.062093284 -0.059059244 0.036317702 -0.052463274 0.0590747 -0.008962461 -0.040384322
-0.025001533 0.017330745 0.040666826 0.01938302 -0.0049039023 -0.065835886 -0.0057302513 0.026709015
0.05664117 0.033892207 -0.012494745 0.005590597 -0.056784064 -0.06677038 0.04567113 -0.0033189675
-0.04955667 0.016275233 -0.008208076 -0.060065974 -0.03196951 -0.027753677 -0.030655995 0.057512783
-0.044542108 -0.05780774 -0.0417495 0.048959624 -0.050446995 -0.057244156 0.04500728 -0.012642448
-0.039693587 0.008994599 0.05850502 -0.060577326 -0.067671075 0.027702402 -0.042786676 0.050882835
0.012459701 0.03337704 0.033209234 0.06751237 -0.030956052 -0.04536716 -0.051559426 0.006784443
0.01647817 -0.034870274 0.040020853 0.013746163 -0.052308705 -0.016215734 0.06306693 0.02466558
0.007320689 0.052774724 0.007895017 -0.06049905 0.057490315 0.039016154 0.024420552 -0.067214906
0.014482879 -0.063148975 0.034754585 0.038397975 -0.051445678 0.03542052 0.066325694 0.05688253
-0.031169923 0.014414776 0.038493305 0.027458945 0.050253306 -0.015471173 0.055841576 -0.03550814
0.019330814 -0.04083916 0.025500638 -0.05654083 0.06894649 0.06422648 -0.01716349 -0.06354179
-0.014498958 -0.058747586 0.053253647 -0.059802577 -0.021268152 0.061372302 0.00037898117 -0.030661827
0.018244088 0.05141214 -0.044956673 0.031354625 0.026709553 0.037296854 0.022407152 0.029855127
0.046103362 -0.018551797 -0.012238271 -0.049516816 -0.050988685 0.001837808 -0.0009577765 -0.008187694
-0.009777521 0.060770366 0.013967351 -0.038296524 0.006618086 -0.02274119 -0.01344477 0.004517708
-0.051696323 -0.0029337995 -0.017299017 0.03247506 -0.0066183954 0.053445086 0.017849302 0.0032930127
-0.0037321195 -0.062220376 -0.051741756 0.033522833 0.05901217 -0.04957126 -0.017524388 0.0021643376
0.053751685 -0.05419677 -0.057540596 -0.0021886984 0.036721352 0.015253282 -0.04228406 -0.008498367
-0.0060009197 0.06468167 -0.0027282294 -0.052983515 0.022931512 0.00051120255 0.01530301 -0.0003875749
0.0027684777 0.014663696 0.021178477 -0.023620123 0.024875596 -0.061331168 -0.038080826 0.015107328
-0.04671387 0.03678229 0.010845185 -0.05529933 0.0036481796 0.015868096 0.030813817 0.038152196
-0.050768677 0.023696827 -0.002335365 0.02075356 -0.023793317 0.0007094684 0.029522 -0.03086252
-0.023509003 -0.022331938 0.05493352 -0.027508853 0.002410444 -0.036523156 0.043525837 0.061129484
0.013734395 -0.063206956 -0.020729454 -0.014550492 0.004504596 0.0023675165 0.021364717 0.022091698
-0.05449943 -0.061042123 -0.029224258 0.019934472 -0.017135588 -0.03981774 0.008547278 -0.022394067
-0.028821973 -0.054665815 -0.0660094 -0.036075115 0.038504884 0.06257875 0.056297604 -0.03745093
-0.017095264 0.038758732 0.061314855 -0.046387732 -0.023050655 -0.062136155 0.0032226862 -0.0030456209
-0.0031929314 0.062437676 -0.06546499 -0.058908805 -0.04815599 -0.015502942 -0.0047764233 -0.025523992
0.059926126 0.047312476 0.024742711 0.028958317 -0.059251998 0.035850678 0.05553706 0.013739152
0.017889217 0.04596428 -0.040441 0.05359648 -0.012101428 0.04775664 0.013927102 -0.053053483
00000000: c880 ccbc 928e ac3c 40ee 8cbd dc85 11bd
00000010: 48bd 3c3d 52d7 b63c 5b5b f03b 5722 6a3d
00000020: 64f9 153d 8755 7ebd 1be8 71bd dfc1 143d
00000030: bbe3 56bd 50f8 713d 49d7 12bc 086a 25bd
00000040: 04d0 ccbc 35f9 8d3c 4292 263d 24c9 9e3c
00000050: eab0 a0bb f7d4 86bd d5c4 bbbb ddcc da3c
00000060: 9200 683d 8ed2 0a3d c2b6 4cbc 5431 b73b
00000070: 6896 68bd e9be 88bd a711 3b3d 0983 59bb
00000080: effb 4abd a353 853c 2a7b 06bc bd07 76bd
00000090: 76f2 02bd ae5b e3bc 4822 fbbc 8692 6b3d
000000a0: c971 36bd cfc7 6cbd 8601 2bbd e389 483d
000000b0: 82a1 4ebd d978 6abd 8e59 383d 4522 4fbc
000000c0: be95 22bd 155e 133c f6a2 6f3d ee1f 78bd
000000d0: 2297 8abd 26f0 e23c 1541 2fbd 856a 503d
000000e0: c623 4c3c 5db6 083d 6806 083d ed43 8a3d
000000f0: 8c97 fdbc ead2 39bd fa2f 53bd 0850 de3b
00000100: 3afd 863c 22d4 0ebd e8ec 233d 9637 613c
00000110: a741 56bd dcd6 84bc 3c29 813d 780f ca3c
00000120: 64e2 ef3b 4f2a 583d 1a5a 013c dacd 77bd
00000130: f77a 6b3d 67cf 1f3d 9c0d c83c f8a7 89bd
00000140: 9949 6d3c 4054 81bd d35a 0e3d 3247 1d3d
00000150: b4b8 52bd 1b15 113d c4d5 873d a8fd 683d
00000160: 1158 ffbc f42b 6c3c 28ab 1d3d 95f1 e03c
00000170: 69d6 4d3d ce7a 7dbc 23ba 643d fc70 11bd
00000180: a85b 9e3c f746 27bd b7e6 d03c 5b97 67bd
00000190: d133 8d3d 2c89 833d 739a 8cbc 3322 82bd
000001a0: 0a8d 6dbc 4fa1 70bd 7f20 5a3d 8cf3 74bd
000001b0: 8c3a aebc 8661 7b3d feb1 c639 832e fbbc
000001c0: a074 953c 8995 523d 7d24 38bd b56d 003d
000001d0: fecd da3c 96c4 183d 348f b73c bd92 f43c
000001e0: e1d6 3c3d f0f9 97bc 0783 48bc 25d2 4abd
000001f0: 83d9 50bd 9be2 f03a 4b13 7bba ad25 06bc
00000200: e531 20bc 59ea 783d 51d7 643c d1dc 1cbd
00000210: 87dc d83b bb4b babc 7447 5cbc 4809 943b
00000220: 86bf 53bd fd44 40bb abb6 8dbc 9204 053d
00000230: 20df d8bb 3ce9 5a3d b338 923c 96cf 573b
00000240: 9396 74bb cbda 7ebd 2aef 53bd 3d4f 093d
00000250: bfb6 713d 3c0b 4bbd 4e8f 8fbc 8fd7 0d3b
00000260: ba2a 5c3d 6ffd 5dbd b0af 6bbd 4470 0fbb
00000270: 2169 163d e7e8 793c 0d32 2dbd bc3c 0bbc
00000280: 5da3 c4bb d377 843d 18cc 32bb 3e05 59bd
00000290: deda bb3c 3902 063a 7ab9 7a3c 6c33 cbb9
000002a0: 596f 353b 0040 703c 7c7e ad3c fd7e c1bc
000002b0: e8c7 cb3c 6436 7bbd a4fa 1bbd ba84 773c
000002c0: 0b57 3fbd 07a9 163d 01b0 313c 8d81 62bd
000002d0: 4c16 6f3b cffd 813c 426d fc3c 7a45 1c3d
000002e0: d1f2 4fbd d91f c23c ec0c 19bb 5f03 aa3c
000002f0: 34ea c2bc 9efb 393a 1fd8 f13c 65d3 fcbc
00000300: f495 c0bc 78f1 b6bc f801 613d 3f5a e1bc
00000310: 8af8 1d3b 4e99 15bd 2648 323d e962 7a3d
00000320: 3a06 613c a672 81bd d1d0 a9bc 3065 6ebc
00000330: 4a9b 933b 5628 1b3b 0f05 af3c a6f9 b43c
00000340: cb3a 5fbd 4e07 7abd b667 efbc 9e4d a33c
00000350: ef5f 8cbc ed17 23bd e209 0c3c c373 b7bc
00000360: 0f1c ecbc 43e9 5fbd f02f 87bd 80c3 13bd
00000370: 4cb7 1d3d 4a29 803d 5198 663d 2566 19bd
00000380: 5e0b 8cbc 7ac1 1e3d 4925 7b3d 1001 3ebd
00000390: bad4 bcbc 7b82 7ebd b433 533b 0a99 47bb
000003a0: 8040 51bb a6be 7f3d 8212 86bd 5c4a 71bd
000003b0: 373f 45bd 0d00 7ebc 8b83 9cbb b117 d1bc
000003c0: 1975 753d baca 413d 3ab1 ca3c fe39 ed3c
000003d0: 39b2 72bd 29d8 123d d47a 633d 2e1a 613c
000003e0: 688c 923c 0a45 3c3d 76a5 25bd fc87 5b3d
000003f0: 1145 46bc 779c 433d 802e 643c 9c4e 59bd

body.2.weight f4 [64, 64]
0.043469567 0.09068449 0.06368536 0.017564472 0.06475003 -0.04318111 -0.076889016 0.093937986
0.010765831 0.09696255 0.07634947 -0.08154304 0.011578547 0.045673057 -0.10930329 0.0035815076
-0.053798318 -0.004202263 0.04998106 0.11649291 0.044055767 0.05961252 -0.0829052 0.066458546
0.041712776 0.09701723 -0.10458929 0.07478374 0.055697598 -0.04553446 -0.01433249 -0.005777101
0.035299882 -0.088281035 -0.12441184 -0.10004444 0.091274075 0.03235166 -0.008876868 -0.015318206
0.12312392 -0.11008692 0.11537716 0.022919677 -0.060894262 0.095054336 -0.02173411 0.006950666
-0.10684478 0.116543375 0.01837641 -0.090842776 0.06833867 -0.011925295 -0.11036801 0.103015244
0.048501827 0.11249066 -0.042405363 0.006253045 -0.0041811117 -0.031376727 0.019975461 0.0005047666
0.03863984 -0.06605433 -0.035784468 0.042434588 0.06397975 0.017787961 0.050779425 0.017865812
0.084574066 -0.073816136 0.12002888 -0.03556726 -0.12020116 -0.08554158 -0.010740817 0.07179229
-0.010885983 0.048761796 -0.061178222 0.03149881 0.036009002 -0.018255515 0.0035659114 -0.0658258
-0.0072262157 -0.10486229 0.030151274 0.021951862 -0.048067465 -0.082469605 -0.05334009 -0.0029148322
0.046756495 0.03511606 -0.08378602 -0.023356816 -0.01405264 -0.0061735725 0.044255387 -0.014188358
-0.07407534 0.10200263 0.048524108 -0.094228774 0.12057903 -0.0030787918 -0.041233167 0.12456787
0.025692126 -0.021717653 -0.011573366 -0.08678592 0.12163981 -0.06695959 0.07144788 0.12074795
0.05844444 0.014678903 -0.08688694 -0.010104826 -0.06982408 -0.017781876 -0.07202297 0.016701004
0.12064811 -0.10000281 -0.05544401 -0.12455677 0.02905717 -0.07291369 -0.039159857 0.02719323
-0.0733585 0.052843377 0.1038633 -0.09300169 0.08554186 0.04633855 0.050752427 0.024562566
0.04981023 -0.09747717 0.024823653 0.024542935 -0.054008957 0.09806218 0.09349245 0.0696374
-0.020222599 0.107975475 0.0024174883 -0.1078297 -0.061513778 -0.032699835 -0.05414068 0.0760134
0.06404774 -0.09469753 -0.018870069 -0.11335745 -0.10652478 -0.07591513 0.0714079 -0.10524166
-0.030045332 -0.07274478 -0.053245213 0.050932415 0.05232184 0.09662386 -0.11903786 0.09172556
0.01892786 0.026703691 -0.08704555 0.09761501 0.0791375 -0.08559999 0.053784627 0.021999376
0.11392735 0.018139454 0.10292349 -0.053344633 0.037117016 0.10626125 0.013850061 -0.011947971
-0.030588381 -0.08359549 -0.106880575 -0.07491013 0.020319244 0.0743211 -0.09534485 0.08616932
-0.07388824 -0.07348469 -0.023560403 -0.10686793 -0.05223336 0.011994002 0.045319796 -0.016268432
-0.118003614 -0.0152203 0.016491886 0.12021326 -0.09117396 -0.10932666 0.10456672 0.0038463387
0.0034523692 0.055811487 0.080050446 -0.0522268 0.095483795 0.124255784 0.038461465 0.113607146
-0.037284043 -0.10485044 0.031366378 -0.060134094 0.117213815 -0.019150116 -0.0815751 0.010091744
0.06610675 0.031773306 -0.048406538 0.09866497 0.025557362 -0.10516736 0.055642083 0.048835445
0.037976205 -0.03931123 -0.00039209283 0.06875776 0.029837323 0.0632971 -0.082524 -0.06961537
0.04625561 -0.08068792 -0.028211193 0.09077259 0.12622587 -0.0869179 -0.10482631 0.058785353
00000000: 250d 323d cab8 b93d 786d 823d 5ee3 8f3c
00000010: aa9b 843d adde 30bd fd77 9dbd 8f62 c03d
00000020: 2b63 303c 4d94 c63d 1c5d 9c3d 0a00 a7bd
00000030: f2b3 3d3c ac13 3b3d 67da dfbd bab7 6a3b
00000040: a05b 5cbd 23b3 89bb f1b8 4c3d d693 ee3d
00000050: d273 343d 422c 743d 34ca a9bd 6b1b 883d
00000060: 04db 2a3d f8b0 c63d e932 d6bd 3828 993d
00000070: 2a23 643d 5882 3abd d2d2 6abc d64d bdbb
00000080: 9c96 103d b0cc b4bd a3cb febd 19e4 ccbd
00000090: e7ed ba3d 2d83 043d 4870 11bc 36f9 7abc
000000a0: 6528 fc3d 4075 e1bd dc4a ec3d 0cc2 bb3c
000000b0: 436c 79bd d9ab c23d bb0b b2bc 6ac2 e33b
000000c0: 70d1 dabd 4bae ee3d 208a 963c c70b babd
000000d0: 25f5 8b3d 5062 43bc a008 e2bd a8f9 d23d
000000e0: daa9 463d 8161 e63d 3fb1 2dbd 58e6 cc3b
000000f0: b501 89bb e284 00bd 94a3 a33c 5052 043a
00000100: cf44 1e3d 7e47 87bd bc92 12bd e4cf 2d3d
00000110: d107 833d 0fb8 913c 16fe 4f3d 535b 923c
00000120: 2b35 ad3d ea2c 97bd b4d1 f53d faae 11bd
00000130: 072c f6bd 6d30 afbd 40fa 2fbc d607 933d
00000140: 1f5b 32bc 73ba 473d 0496 7abd e504 013d
00000150: 2d7e 133d 978c 95bc 11b2 693b adcf 86bd
00000160: e4c9 ecbb 0ac2 d6bd ceff f63c 64d4 b33c
00000170: 64e2 44bd d3e5 a8bd 237b 5abd c506 3fbb
00000180: bd83 3f3d dcd5 0f3d 0198 abbd cb56 bfbc
00000190: 0b3d 66bc ae4b cabb 2345 353d 4976 68bc
000001a0: d0b4 97bd c1e6 d03d 37c1 463d 04fb c0bd
000001b0: 23f2 f63d 8ec5 49bb 1ce4 28bd 701d ff3d
000001c0: 4b78 d23c 38e9 b1bc 379e 3dbc d1bc b1bd
000001d0: 4b1e f93d 1c22 89bd 4453 923d b44a f73d
000001e0: 7063 6f3d c87f 703c c8f1 b1bd b68e 25bc
000001f0: edff 8ebd 4cab 91bc c780 93bd 8bd0 883c
00000200: 5b16 f73d 46ce ccbd 4219 63bd 9f17 ffbd
00000210: 4d09 ee3c c653 95bd 1666 20bd 56c4 de3c
00000220: fb3c 96bd 4c72 583d 48b6 d43d ac77 bebd
00000230: 9230 af3d 7ecd 3d3d c7e1 4f3d 6f37 c93c
00000240: d005 4c3d 1ca2 c7bd f95a cb3c 440e c93c
00000250: 7f38 5dbd d3d4 c83d f878 bf3d 0e9e 8e3d
00000260: dda9 a5bc 3f22 dd3d b96e 1e3b d1d5 dcbd
00000270: dff5 7bbd 43f0 05bd 9ec2 5dbd eaac 9b3d
00000280: 762b 833d c7f0 c1bd 6795 9abc f327 e8bd
00000290: aa29 dabd 6479 9bbd 4e3e 923d f088 d7bd
000002a0: a121 f6bc 37fb 94bd a717 5abd 829e 503d
000002b0: 6d4f 563d bbe2 c53d 1fca f3bd 9cda bb3d
000002c0: 990e 9b3c b3c1 da3c f044 b2bd 61ea c73d
000002d0: d712 a23d 0c4f afbd 454d 5c3d 0938 b43c
000002e0: be52 e93d 3199 943c 8dc9 d23d e77f 5abd
000002f0: 0308 183d 809f d93d 5eeb 623c 6cc1 43bc
00000300: 7c94 fabc 1d34 abbd 34e4 dabd 7b6a 99bd
00000310: 8b74 a63c a935 983d 2944 c3bd 8a79 b03d
00000320: b852 97bd 247f 96bd bf01 c1bc 93dd dabd
00000330: a6f2 55bd 7e82 443c 40a1 393d 6045 85bc
00000340: e1ab f1bd 915e 79bc fe19 873c 5f32 f63d
00000350: 6ab9 babd a8e6 dfbd 1427 d63d db12 7c3b
00000360: 2541 623b 969a 643d 7df1 a33d c5eb 55bd
00000370: 028d c33d d179 fe3d c589 1d3d ddaa e83d
00000380: 27b7 18bd d4bb d6bd 087a 003d 2b4f 76bd
00000390: cc0d f03d b4e0 9cbc d910 a7bd d857 253c
000003a0: fa62 873d ba24 023d ef45 46bd dc10 ca3d
000003b0: ac5d d13c fc61 d7bd f4e8 633d ad07 483d
000003c0: f08c 1b3d d004 21bd cf91 cdb9 ded0 8c3d
000003d0: 676d f43c e9a1 813d 5802 a9bd 8192 8ebd
000003e0: 8676 3d3d b53f a5bd 291b e7bc fbe6 b93d
000003f0: 5b41 013e 0302 b2bd 2daf d6bd e9c8 703d

body.4.weight f4 [64, 64]
-0.03826229 -0.0571733 -0.101598345 -0.12392049 -0.059885155 -0.050178323 -0.09840157 -0.030211188
0.061214603 -0.114133105 0.0839223 -0.102620736 0.0945439 0.05375978 0.06927377 -0.1321472
-0.1227082 -0.057044484 -0.0971783 0.05292963 0.1094331 -0.08153254 0.042600594 -0.028469265
0.1218824 -0.04770315 -0.049020678 -0.12551758 0.017601592 -0.004064206 -0.039892536 0.07322455
0.10565139 -0.035177708 0.033029698 -0.10019416 -0.016948942 0.01904251 0.013957166 0.04172518
0.04900477 -0.043740403 0.042835735 -0.023327747 0.087112114 0.06483554 -0.004098397 0.07095238
0.0065867575 0.016445745 0.0052446127 0.10489344 0.031641833 -0.054470245 0.091303535 -0.07469139
0.0025704652 0.08143158 0.009027177 0.060650587 -0.0038459888 0.054934427 0.0026275383 0.051973403
0.0022289117 -0.07130555 0.06427691 -0.102502465 -0.116796225 0.082742676 0.06526108 -0.09985643
0.029981315 -0.0016618175 0.03008524 0.09937647 0.0043292483 0.047725786 -0.06531427 -0.074324995
0.08070724 -0.0063997237 -0.04631416 0.1051882 -0.075590976 0.12782831 0.09007903 0.0993347
0.019766536 -0.1166053 0.02713688 0.024422957 0.069006525 -0.017709762 -0.06489642 0.116470814
-0.092326626 0.115745865 -0.039708626 -0.07741178 0.10953828 -0.055892624 0.11824841 -0.011157385
0.098620325 -0.11218146 -0.09500533 0.08852662 -0.058452558 0.0037595 0.010123437 -0.03720785
0.054854818 -0.11370845 -0.085075885 -0.050236795 -0.119438425 -0.061550494 0.10461223 -0.043300748
0.12047222 0.008317874 0.04352786 -0.10937561 0.106071964 -0.08728114 -0.031245787 0.05726441
-0.010433022 0.05845677 0.017569378 -0.087246686 0.11117043 0.11307523 0.10690253 0.0075835497
0.11118537 -0.11206033 -0.033355925 -0.051689155 0.047298167 0.10066133 -0.119418636 -0.051708315
0.05626997 -0.0023984185 -0.08573594 0.10290103 -0.10373446 0.087778494 0.016449492 0.1053757
-0.11251409 -0.08614064 -0.054408472 -0.0611505 -0.12745519 0.07435065 -0.107936986 -0.055060957
-0.015001062 0.016529458 -0.122535996 -0.016491499 0.10750001 0.08322708 0.04956828 0.042889003
-0.07595552 -0.12074017 -0.09810086 0.02005893 0.06362478 -0.10929845 -0.08697394 0.016240133
0.07038756 -0.036460128 0.039436664 -0.04190123 -0.062223032 0.0018215919 -0.010392246 0.011265801
-0.09528702 -0.09772279 -0.025039632 0.1045065 -0.123101436 0.07299646 0.051755834 -0.07475556
0.118158214 -0.046900228 -0.023005422 -0.026536547 -0.11512569 -0.05565045 -0.06064481 0.011227573
0.034375805 -0.073425345 0.046331767 0.053673662 -0.035094645 -0.042679362 -0.10743525 -0.07379594
-0.027552241 0.0046903673 0.0493988 0.0031146035 -0.071573734 0.04795708 0.050459582 0.09903921
0.049849596 0.07350806 -0.06729373 0.07263827 -0.10158418 0.07377856 -0.121215984 -0.10427817
0.10361085 0.05435892 -0.10111064 0.108395964 0.07598265 0.029724846 -0.042543396 -0.037708875
-0.03716644 -0.11838583 0.093246356 0.11232044 -0.10307231 -0.038671505 -0.080910556 -0.12286657
-0.1160062 0.12038237 -0.02854074 -0.02451863 -0.06360108 0.023307942 -0.084430814 -0.12961611
0.0834996 0.0027035305 0.047605287 0.08220863 0.058933552 -0.07301893 0.030980676 -0.053608377
00000000: ebb8 1cbd 8d2e 6abd cb12 d0bd 07ca fdbd
00000010: 234a 75bd c987 4dbd c386 c9bd 747d f7bc
00000020: 2abc 7a3d 9ebe e9bd 74df ab3d d22a d2bd
00000030: 3ba0 c13d 3733 5c3d 68df 8d3d 9851 07be
00000040: 704e fbbd 7aa7 69bd 6b05 c7bd bdcc 583d
00000050: 761e e03d 88fa a6bd f67d 2e3d 6038 e9bc
00000060: 7b9d f93d 6164 43bd e8c9 48bd ae87 00be
00000070: 3731 903c 082d 85bb 5b66 23bd c1f6 953d
00000080: c25f d83d 8016 10bd 264a 073d 9932 cdbd
00000090: 82d8 8abc 0aff 9b3c 99ac 643c 06e8 2a3d
000000a0: 3ab9 483d 2329 33bd 8674 2f3d d519 bfbc
000000b0: d667 b23d 7fc8 843d d94b 86bb 7b4f 913d
000000c0: bad5 d73b 3ab9 863c 00db ab3b 5fd2 d63d
000000d0: de9a 013d 311c 5fbd 59fd ba3d cdf7 98bd
000000e0: 4075 283b 9ac5 a63d b9e6 133c c06c 783d
000000f0: fc0c 7cbb ec02 613d c732 2c3b 10e2 543d
00000100: ef12 123b a508 92bd 9da3 833d d0ec d1bd
00000110: dc32 efbd fe74 a93d 9aa7 853d 8781 ccbd
00000120: 609b f53c 58d1 d9ba 5275 f63c e485 cb3d
00000130: 5edc 8d3b 1d7c 433d 7dc3 85bd b437 98bd
00000140: d649 a53d c6b4 d1bb ebb3 3dbd e96c d73d
00000150: 71cf 9abd 6de5 023e 5b7b b83d fe6f cb3d
00000160: 6eed a13c c2ce eebd 2a4e de3c a712 c83c
00000170: 4b53 8d3d 1014 91bc 6ae8 84bd 4088 ee3d
00000180: be15 bdbd 2b0c ed3d 83a5 22bd 118a 9ebd
00000190: 9b55 e03d aaef 64bd 392c f23d 77cd 36bc
000001a0: 74f9 c93d 65bf e5bd 2892 c2bd 724d b53d
000001b0: f36b 6fbd f261 763b c6dc 253c 4267 18bd
000001c0: 72af 603d fadf e8bd 443c aebd 19c5 4dbd
000001d0: 229c f4bd 5f1c 7cbd f03e d63d 205c 31bd
000001e0: 24ba f63d b147 083c 454a 323d 5200 e0bd
000001f0: 423c d93d 74c0 b2bd 2af7 ffbc 168e 6a3d
00000200: 44ef 2abc 5e70 6f3d a8ed 8f3c 64ae b2bd
00000210: 53ad e33d fc93 e73d b7ef da3d 6d7f f83b
00000220: 28b5 e33d e37f e5bd 39a0 08bd 02b8 53bd
00000230: b9bb 413d 8727 ce3d c291 f4bd 19cc 53bd
00000240: 577b 663d c92e 1dbb 5396 afbd c6bd d23d
00000250: bc72 d4bd 36c5 b33d 16c1 863c 37cf d73d
00000260: ca6d e6bd 816a b0bd 6bdb 5ebd f278 7abd
00000270: 9d83 02be 2745 983d 110e ddbd 9987 61bd
00000280: 04c7 75bc c968 873c 27f4 fabd 2e19 87bc
00000290: f728 dc3d f672 aa3d 1c08 4b3d 61ac 2f3d
000002a0: 918e 9bbd 9f46 f7bd 1be9 c8bd a052 a43c
000002b0: b54d 823d ded7 dfbd 651f b2bd 070a 853c
000002c0: 5a27 903d 3757 15bd 5788 213d a0a0 2bbd
000002d0: 94dd 7ebd 7bc2 ee3a 3d44 2abc 3294 383c
000002e0: d725 c3bd e322 c8bd ea1f cdbc 8107 d63d
000002f0: 9b1c fcbd 2b7f 953d edfd 533d 7119 99bd
00000300: effc f13d 741a 40bd de75 bcbc 2c63 d9bc
00000310: 05c7 ebbd baf1 63bd b166 78bd dbf3 373c
00000320: a5cd 0c3d 0760 96bd 61c6 3d3d ead8 5b3d
00000330: 67bf 0fbd 8ed0 2ebd 0307 dcbd 5322 97bd
00000340: 3db5 e1bc a7b1 993b 6556 4a3d 601e 4c3b
00000350: 4095 92bd a56e 443d b5ae 4e3d 12d5 ca3d
00000360: 172f 4c3d 658b 963d 4cd1 89bd 60c3 943d
00000370: 5e0b d0bd 3719 973d 1640 f8bd cb8f d5bd
00000380: ed31 d43d 75a7 5e3d 1813 cfbd b4fe dd3d
00000390: cb9c 9b3d 8581 f33c fc41 2ebd 9f74 1abd
000003a0: d63b 18bd 4574 f2bd f2f7 be3d 4208 e63d
000003b0: 9317 d3bd 0366 1ebd 6fb4 a5bd 78a1 fbbd
000003c0: a994 edbd 088b f63d 45ce e9bc 4bdb c8bc
000003d0: 4841 82bd 4cf0 be3c 10ea acbd 16ba 04be
000003e0: d701 ab3d b72d 313b c3fd 423d 005d a83d
000003f0: 4f64 713d f38a 95bd 30cb fd3c 7594 5bbd

body.6.weight f4 [64, 64]
-0.10761878 -0.095859505 -0.043950353 0.08374813 0.12789246 -0.037132617 -0.083140224 0.026894521
0.070550375 0.040910866 -0.04529093 -0.046452463 -0.005026014 -0.054078102 -0.052897215 0.10070115
0.08464474 -0.016572023 -0.038178306 0.057155844 -0.10560501 0.04738042 -0.11039312 -0.052145977
0.07747645 0.09641359 0.0031677298 0.11749183 0.03733127 -0.08540872 0.02571193 -0.07180155
0.10285727 0.11894251 -0.013678603 0.08672643 0.034229707 0.1081413 0.10164104 -0.010953074
-0.018893 0.12179753 0.10505866 -0.04072114 0.038428776 0.09491417 0.08668321 -0.08492043
0.054323692 -0.044212736 -0.09641644 0.123196535 -0.0988821 0.019199925 0.012017294 0.019138342
0.049737997 0.054085493 0.05400092 0.051286202 0.051732965 0.07504671 -0.09830099 -0.038475245
0.040423352 0.11273686 0.030746393 0.10999531 0.024514804 0.0629859 0.028483082 -0.06078391
-0.0891512 0.11917153 0.010296583 0.00090037216 -0.0058278595 -0.034076527 -0.036990985 0.10022354
0.048066653 0.10935095 -0.047809042 0.053926386 0.10452148 -0.017106155 0.045759644 0.12432856
0.10659051 -0.044247005 0.037794378 0.11550162 -0.10593162 0.11443837 0.0882087 0.07989988
0.034109812 0.055884134 -0.033740107 0.089134894 -0.059853487 0.050342508 -0.026874194 0.11862832
0.11318993 0.10327074 0.10753336 0.027468072 -0.04914994 0.041755315 0.06808119 -0.056123268
-0.121956475 -0.09345818 -0.005518767 0.07004769 -0.11565637 -0.034839325 -0.08482626 0.06282505
0.059821334 -0.104468755 -0.046379045 0.016652033 0.0033935867 0.0030564934 0.03098537 0.1009332
-0.10620773 0.119180135 0.0733672 0.10476168 0.044109255 -0.047876403 0.024872165 0.05149418
0.014396387 -0.032107342 0.05999426 -0.10817466 -0.09159599 0.044730328 0.037303958 -0.099000566
0.029619353 0.09252561 -0.03915245 -0.0760212 0.07885978 -0.05792591 -0.056153152 -0.045770843
-0.02274106 0.011716471 -0.054476246 -0.0097135985 -0.0075363857 -0.033568583 -0.05681692 -0.091904916
0.11560199 -0.04394804 -0.038441002 0.07512245 -0.046032194 -0.020265335 -0.044306383 -0.046913113
-0.03952373 -0.06298983 0.10272513 -0.01851764 -0.11400785 0.049278207 0.06491669 0.053891692
-0.12246991 -0.11443681 -0.0868918 -0.0019591616 0.04573445 -0.028626064 0.017963434 -0.04622283
-0.10278577 -0.117603466 -0.112511635 0.10883919 -0.066942506 0.11882509 -0.032184765 0.10852999
0.038936857 0.09504109 -0.07575779 -0.02266476 0.03581518 -0.02366982 -0.07632073 -0.045078795
-0.012306426 0.025959851 0.014480819 0.11183306 0.030507542 -0.0008490495 -0.09444292 -0.10726131
-0.009840191 0.06308766 -0.101760946 -0.06162736 0.008392293 0.03195237 -0.09755803 0.0035986654
-0.10854199 -0.058583252 0.01571272 -0.024009854 -0.07127467 -0.116802715 0.12193092 0.09377455
-0.10328684 -0.10280599 -0.08922767 -0.008003869 0.0354215 -0.10237978 0.09863777 0.047275353
0.048546158 0.11986822 -0.099378526 0.07420819 -0.07113929 0.12224329 -0.0539083 -0.036931
-0.012084844 0.023482837 0.0567817 -0.07362227 0.035370786 -0.11183989 0.10650724 0.12721372
-0.00010331313 0.03324922 -0.049820885 0.06298932 0.11192885 -0.060233667 -0.07378141 0.053058125
00000000: 3c67 dcbd fd51 c4bd 4905 34bd 2484 ab3d
00000010: 3ef6 023e 5f18 18bd 6c45 aabd e651 dc3c
00000020: b77c 903d 2792 273d fb82 39bd f044 3ebd
00000030: 43b1 a4bb 0081 5dbd c0aa 58bd 683c ce3d
00000040: 395a ad3d 0dc2 87bc db60 1cbd 3f1c 6a3d
00000050: 7147 d8bd f911 423d ca15 e2bd 0597 55bd
00000060: f9ab 9e3d 7d74 c53d b099 4f3b 8e9f f03d
00000070: ace8 183d c4ea aebd d3a1 d23c b10c 93bd
00000080: d5a6 d23d 2198 f33d 381c 60bc a09d b13d
00000090: 7334 0c3d 3079 dd3d 2d29 d03d 8674 33bc
000000a0: 7ec5 9abc fc70 f93d ff28 d73d 36cb 26bd
000000b0: 7e67 1d3d 5c62 c23d f886 b13d c3ea adbd
000000c0: 8582 5e3d 6a18 35bd fc75 c5bd 774e fc3d
000000d0: b382 cabd 2949 9d3c 2fe4 443c 03c8 9c3c
000000e0: 12ba 4b3d c088 5d3d 1230 5d3d 7b11 523d
000000f0: f2e5 533d 17b2 993d 0852 c9bd 3898 1dbd
00000100: f592 253d 95e2 e63d dcdf fb3c 3945 e13d
00000110: 45d3 c83c c0fe 803d 5a55 e93c 8df8 78bd
00000120: e894 b6bd 3410 f43d 00b3 283c f406 6c3a
00000130: a1f7 bebb d493 0bbd dc83 17bd 0042 cd3d
00000140: 8ae1 443d 64f3 df3d 6ad3 43bd eae1 5c3d
00000150: 5c0f d63d 3522 8cbc 776e 3b3d f99f fe3d
00000160: 204c da3d 593c 35bd 47ce 1a3d 1d8c ec3d
00000170: adf2 d8bd aa5e ea3d c3a6 b43d 8ca2 a33d
00000180: bbb6 0b3d c3e6 643d 1133 0abd 5b8c b63d
00000190: ee28 75bd f233 4e3d 4527 dcbc 68f3 f23d
000001a0: 1fd0 e73d 9c7f d33d 733a dc3d b904 e13c
000001b0: 7351 49bd 9f07 2b3d 276e 8b3d 83e1 65bd
000001c0: 51c4 f9bd 0167 bfbd c6d6 b4bb 2a75 8f3d
000001d0: 3fdd ecbd aeb3 0ebd 64b9 adbd 6baa 803d
000001e0: 3707 753d b7f3 d5bd f4f7 3dbd d869 883c
000001f0: f066 5e3b 734f 483b 08d5 fd3c 11b6 ce3d
00000200: 7083 d9bd b714 f43d 8b41 963d 4b8d d63d
00000210: e8ab 343d 0c1a 44bd b6c0 cb3c 90eb 523d
00000220: d3de 6b3c fd82 03bd 8bbc 753d ad8a ddbd
00000230: ae96 bbbd 2637 373d 09cc 183d cfc0 cabd
00000240: 49a4 f23c 117e bd3d 525e 20bd 01b1 9bbd
00000250: 3d81 a13d b843 6dbd d900 66bd 357a 3bbd
00000260: 764b babc 71f6 3f3c 7c22 5fbd c925 1fbc
00000270: c9f3 f6bb 367f 09bd dcb8 68bd a538 bcbd
00000280: bcc0 ec3d dc02 34bd 5074 1dbd cdd9 993d
00000290: 418c 3cbd 7d03 a6bc 9c7a 35bd f727 40bd
000002a0: a2e3 21bd d000 81bd 8e61 d23d 4eb2 97bc
000002b0: f37c e9bd f2d7 493d 0bf3 843d 89bd 5c3d
000002c0: 81d1 fabd d95d eabd 54f4 b1bd 4765 00bb
000002d0: 0c54 3b3d 3581 eabc 0d28 933c 2654 3dbd
000002e0: 5981 d2bd 16da f0bd 806c e6bd 15e7 de3d
000002f0: 2719 89bd 925a f33d 2cd4 03bd f944 de3d
00000300: 417c 1f3d e7a4 c23d e626 9bbd 72ab b9bc
00000310: f0b2 123d 36e7 c1bc 0b4e 9cbd 8ba4 38bd
00000320: e4a0 49bc c1a9 d43c f540 6d3c bb08 e53d
00000330: f4ea f93c bf92 5eba 4a6b c1bd d1ab dbbd
00000340: c138 21bc 1a34 813d 0b68 d0bd f86c 7cbd
00000350: d47f 093c 7de0 023d 81cc c7bd 96d7 6b3b
00000360: 434b debd fef4 6fbd f6b7 803c 50b0 c4bc
00000370: 74f8 91bd 4336 efbd ebb6 f93d df0c c03d
00000380: 0d88 d3bd f28b d2bd ffbc b6bd a922 03bc
00000390: 2316 113d 7dac d1bd 9902 ca3d cda3 413d
000003a0: 56d8 463d 787d f53d f886 cbbd 77fa 973d
000003b0: 7ab1 91bd b15a fa3d f3ce 5cbd f644 17bd
000003c0: 82ff 45bc 145f c03c ee93 683d 46c7 96bd
000003d0: f5e0 103d 500c e5bd 7820 da3d 5044 023e
000003e0: d0a9 d8b8 5630 083d fc10 4cbd 8b00 813d
000003f0: f43a e53d 94b7 76bd b51a 97bd 7a53 593d

body.8.weight f4 [64, 64]
-0.11347009 0.08507418 0.057734188 0.044275768 0.031276483 0.03594363 0.053207744 0.08224939
0.06101151 0.110130176 -0.0406021 -0.038479198 -0.11606089 0.009309569 0.091475725 -0.020238666
0.025643628 0.09480624 0.028412577 -0.104143426 -0.018279746 0.04910041 0.08557407 -0.046724956
0.10634856 -0.114537664 0.07308965 0.025580756 0.12174941 0.09489426 0.04962941 0.041522697
-0.108459234 0.10202909 -0.096856676 -0.042276785 -0.106479466 -0.062291067 0.036739595 -0.048520375
0.1036547 0.08804674 -0.032252163 -0.016972391 0.08952657 -0.08890661 0.07934416 -0.085793145
0.107294895 -0.08243468 0.08846281 -0.036761165 -0.057764795 0.11793952 -0.037199378 0.009994204
-0.018018665 0.049524065 -0.11176137 0.054897174 -0.020754255 0.07472298 -0.048405085 -0.042726994
0.056529906 0.089000024 0.094416976 0.04718904 -0.083126314 0.09537564 -0.12098436 0.0001692863
0.0378729 0.094266005 0.095830254 0.118100174 0.10505457 -0.03853512 -0.098123 0.009252379
0.0008834912 0.112023704 0.035924636 0.10574897 0.05926535 -0.03142233 0.12838063 -0.0087847365
0.06728064 -0.06782966 -0.0897141 -0.0463297 -0.11735518 0.043182578 0.04621488 -0.05365738
-0.09175235 -0.022612812 -0.11145537 -0.11262181 0.10618731 0.02160982 -0.09359692 0.006248769
-0.027462358 -0.01435036 0.02191607 -0.03781099 0.01860295 0.08751738 0.0133040985 0.10729494
-0.013970986 -0.12333493 -0.10745709 -0.04677117 -0.08423412 0.07176325 0.086633585 -0.02530783
0.09366661 0.09469892 -0.015739324 0.051595327 0.07744773 -0.08546084 0.10762767 -0.09393965
0.008179858 -0.05828503 -0.057548042 -0.02598112 -0.0090518 0.07875527 -0.011181019 -0.114166155
-0.045066126 0.04732161 0.05684757 0.09018976 -0.08915156 -0.108075485 0.027120963 -0.07454955
-0.017222585 0.0031720959 -0.08068926 -0.04314036 -0.0454098 -0.02095935 0.023414616 0.06409235
0.03929292 -0.06995365 -0.095674835 0.1165428 0.058662597 0.0064971284 -0.09155195 -0.10765107
0.05467388 -0.02681427 0.0159313 -0.085687846 0.016836414 0.10912908 0.017314395 0.04387989
0.03613318 -0.11904132 -0.025739107 -0.109888375 0.12225145 -0.06726993 -0.0030539033 0.035029005
-0.028048463 -0.061374277 -0.06539716 0.025451323 -0.12484133 0.083130755 -0.0048485952 -0.055976562
-0.09232759 0.050329693 -0.012492851 0.0021483942 0.08726065 -0.039178193 0.119937845 0.061980084
-0.025696922 0.058078643 -0.01255249 -0.07415786 -0.0804659 -0.11228541 -0.028074274 0.107966214
0.027157722 0.036548823 -0.09590672 0.07000238 0.0016024096 -0.08131017 0.011862637 0.05543208
0.0006093434 -0.01144119 0.096914165 -0.054477904 0.113213666 0.12729321 -0.10623276 0.012461254
-0.117828146 -0.02211659 -4.6115252e-05 -0.0393341 0.10392218 0.060638417 0.082679085 -0.058615234
0.05131399 0.07294543 0.0040163263 -0.09023162 -0.09538686 -0.068430476 -0.10625533 0.10490758
1.461459e-05 0.033011705 -0.10743354 0.058447577 -0.0671604 -0.10726673 -0.106953464 0.07501684
-0.019860642 0.011542889 0.0004042238 0.04647053 0.07240944 -0.012138276 -0.039212972 0.033940606
0.042596374 0.09587364 0.006619917 0.09523355 0.04284481 -0.0744033 -0.027457159 -0.01949635
00000000: 0263 e8bd 5f3b ae3d af7a 6c3d 825a 353d
00000010: c51b 003d a139 133d 5df0 593d 5e72 a83d
00000020: 35e7 793d ee8b e13d 634e 26bd 5d9c 1dbd
00000030: 55b1 edbd 2a87 183c a057 bb3d 8fcb a5bc
00000040: 9612 d23c c629 c23d 7ec1 e83c 2649 d5bd
00000050: 68bf 95bc 831d 493d 7541 af3d ab62 3fbd
00000060: 46cd d93d b992 eabd 07b0 953d bc8e d13c
00000070: c157 f93d ec57 c23d 3548 4b3d b413 2a3d
00000080: e01f debd a1f4 d03d cb5c c6bd 6c2a 2dbd
00000090: e811 dabd eb24 7fbd 427c 163d 4dbd 46bd
000000a0: ea48 d43d d951 b43d d81a 04bd af09 8bbc
000000b0: b559 b73d ab14 b6bd 317f a23d 51b4 afbd
000000c0: 6dbd db3d 83d3 a8bd fd2b b53d e092 16bd
000000d0: c79a 6cbd 468a f13d 605e 18bd bbbe 233c
000000e0: e19b 93bc bfd9 4a3d 25e3 e4bd dcdb 603d
000000f0: d404 aabc 5d08 993d 6944 46bd 8002 2fbd
00000100: e78b 673d a545 b63d b05d c13d 4b49 413d
00000110: 213e aabd 4e54 c33d a6c6 f7bd 7282 3139
00000120: 9d20 1b3d 890e c13d a742 c43d 81de f13d
00000130: da26 d73d 01d7 1dbd b6f4 c8bd 4a97 173c
00000140: 179a 673a af6c e53d b625 133d ea92 d83d
00000150: 39c0 723d b3b4 00bd 3676 033e dbed 0fbc
00000160: 6fca 893d 47ea 8abd 07bc b7bd 36c4 3dbd
00000170: ea57 f0bd 37e0 303d d04b 3d3d d7c7 5bbd
00000180: a8e8 bbbd 813e b9bc b742 e4bd 43a6 e6bd
00000190: bb78 d93d 1407 b13c beaf bfbd 79c2 cc3b
000001a0: bdf8 e0bc c61d 6bbc 5489 b33c b2df 1abd
000001b0: 3765 983c 503c b33d 6ff9 593c 73bd db3d
000001c0: 90e6 64bc 0697 fcbd 7612 dcbd 2093 3fbd
000001d0: f082 acbd 9cf8 923d f36c b13d 5e52 cfbc
000001e0: 48d4 bf3d 82f1 c13d c1ef 80bc 9f55 533d
000001f0: ea9c 9e3d 1806 afbd e56b dc3d 6e63 c0bd
00000200: d004 063c 49bc 6ebd 7fb7 6bbd 5cd6 d4bc
00000210: 004e 14bc 714a a13d 9830 37bc f2cf e9bd
00000220: 4297 38bd 4ed4 413d ffd8 683d 69b5 b83d
00000230: 1895 b6bd ae56 ddbd c82c de3c 6fad 98bd
00000240: 6116 8dbc f0e2 4f3b 6940 a5bd f2b3 30bd
00000250: a0ff 39bd f1b2 abbc 02d0 bf3c da42 833d
00000260: 9df1 203d dc43 8fbd 2bf1 c3bd fead ee3d
00000270: 3148 703d dde5 d43b 977f bbbd 2a78 dcbd
00000280: b8f1 5f3d 9aa9 dbbc 5c82 823c 1c7d afbd
00000290: 85ec 893c 117f df3d ebd6 8d3c 66bb 333d
000002a0: 6300 143d f0cb f3bd d2da d2bc 280d e1bd
000002b0: f85e fa3d d1c4 89bd ff23 48bb 937a 0f3d
000002c0: e4c5 e5bc 9863 7bbd f2ee 85bd 4b7f d03c
000002d0: d0ac ffbd 7540 aa3d f7e0 9ebb ae47 65bd
000002e0: 3f16 bdbd 8226 4e3d d1ae 4cbc 13cc 0c3b
000002f0: b6b5 b23d 5079 20bd f9a1 f53d d4de 7d3d
00000300: 5a82 d2bc dfe3 6d3d f6a8 4dbc 13e0 97bd
00000310: 4ecb a4bd e5f5 e5bd 05fc e5bc 641d dd3d
00000320: df79 de3c 38b4 153d be6a c4bd 685d 8f3d
00000330: f207 d23a f285 a6bd 815b 423c c00c 633d
00000340: 58bc 1f3a d473 3bbc ef7a c63d 3924 5fbd
00000350: 91dc e73d 2759 023e 9090 d9bd 4a2a 4c3c
00000360: e24f f1bd da2d b5bc e06b 41b8 cb1c 21bd
00000370: 27d5 d43d fd5f 783d a753 a93d 8716 70bd
00000380: 9e2e 523d 6a64 953d 639b 833b 5bcb b8bd
00000390: 305a c3bd 4725 8cbd 659c d9bd c9d9 d63d
000003a0: 3031 7537 4837 073d 1e06 dcbd ba66 6f3d
000003b0: 648b 89bd a9ae dbbd 6b0a dbbd 6ea2 993d
000003c0: c9b2 a2bc 631e 3d3c 00ee d339 e257 3e3d
000003d0: 674b 943d 9fdf 46bc c89d 20bd 4e05 0b3d
000003e0: 8979 2e3d 6659 c43d e4eb d83b cf09 c33d
000003f0: 0a7e 2f3d c260 98bd d6ed e0bc cfb6 9fbc

policy.0.weight f4 [64, 64]
-0.06466108 -0.09718491 0.08725882 0.11844007 0.03057352 0.038513154 0.028578598 -0.063803464
0.0375579 -0.05843284 0.070716806 0.1083714 0.08739181 0.013379845 0.0037377537 0.026950391
0.017872877 0.1232156 0.0021290646 0.05871397 0.026001282 0.036041535 0.07404458 -0.076926395
0.08700962 0.015053061 0.08228928 -0.12284766 -0.100845985 0.0980771 -0.0847191 -0.1253775
-0.078460574 0.10324458 -0.07916087 0.09091274 -0.050486457 -0.02286253 -0.09714679 -0.026314564
0.09667474 0.11925738 0.07896678 0.08834563 0.0452679 -0.011998254 -0.074406095 0.107010245
0.053207718 0.093912154 0.026908273 -0.0814038 -0.03765423 0.09743046 0.0355542 0.03843856
0.0043087737 -0.031881478 -0.10935149 -0.033347305 -0.00797382 -0.11840167 0.013214412 0.04717478
0.08021416 0.06813772 -0.04888803 0.05124773 -0.038571715 -0.03579334 -0.0071361642 0.023616083
0.012224607 0.04749481 0.013168291 -0.035022967 0.102402285 -0.07337972 0.00067898864 0.06934277
-0.07511541 0.070229165 -0.03240659 0.10633139 0.07237114 0.06559288 0.025631886 -0.10165146
0.052145705 0.036086574 0.0515608 -0.0063004997 0.10209284 0.10084548 0.09652343 0.04433559
0.08537195 0.085623525 0.07208794 0.100399114 -0.009216491 0.045502342 0.059283208 -0.1086174
-0.020131888 -0.037074137 0.108213216 -0.119155094 -0.07511441 0.0903281 0.12122302 0.010688946
-0.0019666934 0.09563332 0.014070369 -0.07152167 -0.045630287 -0.013713573 0.0788173 0.01544128
0.09357794 0.04085516 0.059987422 0.12200282 -0.047808103 -0.07290765 -0.05423243 0.09416742
-0.018226735 -0.04763095 -0.009197276 0.072188094 0.043364163 0.035092328 0.018525044 0.11627226
0.02827302 0.03290199 0.08848696 -0.083995 -0.023811227 -0.06576429 -0.07176809 0.05494354
0.052311804 -0.09343777 0.06623222 -0.025708904 -0.0033151484 -0.034343768 -0.058425352 -0.07881
-0.02194553 -0.09649296 0.07698906 0.11038605 0.09488158 0.11516984 -0.05740965 0.06783793
-0.054893482 -0.02379924 -0.089794785 -0.050913773 0.01774396 0.0074961446 0.08691423 -0.106216505
-0.035539534 0.06330148 -0.009827364 -0.034350168 -0.0237943 -0.0016568373 -0.07982906 -0.108251125
-0.097550295 0.00815145 -0.07986391 -0.093612686 -0.029956384 -0.117848285 -0.04135591 -0.005422321
0.08820096 -0.020265922 -0.034004424 0.0393318 0.12277324 -0.010597894 -0.08987777 0.11670945
-0.09939267 0.07448473 0.012647646 -0.090032175 0.03457595 0.11070989 0.039448738 -0.06214182
-0.054627933 0.10971831 -0.07822868 -0.07700581 -0.112915926 0.07027761 0.05518025 -0.060978256
-0.0064481166 -0.028945958 -0.040705945 -0.010453231 -0.03693299 -0.057986885 0.08968076 -0.07645712
-0.085118055 -0.09741721 0.048205998 -0.07416582 -0.036945075 0.114006065 -0.12273727 -0.05980691
-0.105396785 0.01660014 -0.07085032 -0.045704417 0.037511956 0.0018807729 -0.046042245 0.054664627
0.07490235 -0.08062078 0.119464554 0.06626773 -0.06635167 -0.034032874 -0.04090982 0.12145901
-0.11040207 -0.06143683 0.020973757 -0.02165554 0.08651341 -0.01410755 -0.0081361225 0.118728176
0.08977048 0.07433181 -0.06656438 0.06989531 -0.059166893 -0.11514925 0.004295958 -0.09298911
00000000: 076d 84bd e208 c7bd c1b4 b23d b590 f23d
00000010: 5275 fa3c f8bf 1d3d aa1d ea3c 64ab 82bd
00000020: 50d6 193d 4657 6fbd f9d3 903d d3f1 dd3d
00000030: 7afa b23d 2337 5b3c 1af5 743b 11c7 dc3c
00000040: 246a 923c 7658 fc3d c787 0b3b 0f7e 703d
00000050: a400 d53c 4aa0 133d afa4 973d 968b 9dbd
00000060: 1a32 b23d 1da1 763c 4887 a83d 8e97 fbbd
00000070: 5788 cebd a6dc c83d 3581 adbd f662 00be
00000080: f0af a0bd e571 d33d 181f a2bd 7530 ba3d
00000090: e3ca 4ebd 334a bbbc e5f4 c6bd a491 d7bc
000000a0: 68fd c53d 373d f43d 56b9 a13d 8eee b43d
000000b0: d56a 393d 5394 44bc 3962 98bd 3028 db3d
000000c0: 56f0 593d 0455 c03d bd6e dc3c 09b7 a6bd
000000d0: 523b 1abd 9f89 c73d 48a1 113d c071 1d3d
000000e0: 9d30 8d3b 2796 02bd adf3 dfbd 2f97 08bd
000000f0: a0a4 02bc 937c f2bd 4381 583c 583a 413d
00000100: 5247 a43d ca8b 8b3d d13e 48bd 24e9 513d
00000110: 60fd 1dbd 0a9c 12bd 7cd6 e9bb 8476 c13c
00000120: b849 483c eb89 423d d1bf 573c 3e74 0fbd
00000130: 4ab8 d13d 1b48 96bd 28fe 313a 9503 8e3d
00000140: 1cd6 99bd 4fd4 8f3d c6bc 04bd 46c4 d93d
00000150: 5237 943d 8f55 863d f6f9 d13c a42e d0bd
00000160: bc96 553d 84cf 133d 6b31 533d 6c74 cebb
00000170: 0d16 d13d 1388 ce3d 13ae c53d 3c99 353d
00000180: 7dd7 ae3d 635b af3d d8a2 933d 0d9e cd3d
00000190: c400 17bc aa60 3a3d f3d2 723d cd72 debd
000001a0: a1eb a4bc 0ddb 17bd e49e dd3d 9607 f4bd
000001b0: 95d5 99bd f0fd b83d c643 f83d b020 2f3c
000001c0: a4e3 00bb 67db c33d 6887 663c f479 92bd
000001d0: d3e6 3abd e5ae 60bc f76a a13d 6cfd 7c3c
000001e0: caa5 bf3d be57 273d 5fb5 753d 9ddc f93d
000001f0: 6ed2 43bd 9b50 95bd d322 5ebd d9da c03d
00000200: 3c50 95bc ac18 43bd 2cb0 16bc 5ad7 933d
00000210: 9f9e 313d f9bc 0f3d d5c1 973c 2720 ee3d
00000220: d29c e73c 3dc4 063d a738 b53d 9205 acbd
00000230: c30f c3bc 6eaf 86bd 26fb 92bd 7a0c 613d
00000240: e744 563d 4d5c bfbd c2a4 873d 7b9b d2bc
00000250: f642 59bb 0dac 0cbd 6c4f 6fbd 2367 a1bd
00000260: 1dc7 b3bc 1a9e c5bd 71ac 9d3d 1512 e23d
00000270: 4651 c23d 2ade eb3d 6226 6bbd 9dee 8a3d
00000280: fdd7 60bd a0f6 c2bc 54e6 b7bd f68a 50bd
00000290: c85b 913c 38a2 f53b 1600 b23d 0a88 d9bd
000002a0: e791 11bd 35a4 813d f402 21bc c3b2 0cbd
000002b0: 44ec c2bc 3c2a d9ba 6b7d a3bd c4b2 ddbd
000002c0: 73c8 c7bd a98d 053c b18f a3bd 02b8 bfbd
000002d0: 1767 f5bc 715a f1bd d164 29bd baad b1bb
000002e0: b4a2 b43d b804 a6bc 3948 0bbd 621a 213d
000002f0: 8970 fb3d caa2 2dbc d611 b8bd 5d05 ef3d
00000300: 628e cbbd 738b 983d 1238 4f3c ca62 b8bd
00000310: 839f 0d3d debb e23d 0095 213d 6c88 7ebd
00000320: 8ac1 5fbd feb3 e03d 5c36 a0bd 39b5 9dbd
00000330: 7740 e7bd b5ed 8f3d b004 623d 56c4 79bd
00000340: b94a d3bb 1320 edbc 47bb 26bd 0744 2bbc
00000350: 0c47 17bd a883 6dbd 8caa b73d 8d95 9cbd
00000360: 6052 aebd ad82 c7bd a773 453d 40e4 97bd
00000370: b853 17bd 037c e93d ae5d fbbd 17f8 74bd
00000380: 45da d7bd 04fd 873c f919 91bd 8e34 3bbd
00000390: 23a6 193d 4484 f63a cb96 3cbd 04e8 5f3d
000003a0: 6766 993d 821c a5bd d5a9 f43d 60b7 873d
000003b0: 62e3 87bd 0e66 0bbd 0e91 27bd 80bf f83d
000003c0: 7b1a e2bd 2fa5 7bbd 28d1 ab3c f666 b1bc
000003d0: f12d b13d 5a23 67bc 5f4d 05bc c227 f33d
000003e0: 96d9 b73d 473b 983d e852 88bd 4625 8f3d
000003f0: fc58 72bd 5fd3 ebbd 1cc5 8c3b 1371 bebd

policy.2.weight f4 [23, 64]
0.016599702 0.0074390313 0.053956028 0.12103154 -0.11752903 0.10701454 0.001530173 -0.024383511
-0.08841292 0.027212609 0.094539374 0.020702442 -0.04611346 0.020223765 -0.0481761 0.011637571
-0.035729285 -0.09204047 0.09041368 -0.018709915 0.09983147 -0.022519175 0.09057138 0.07025495
-0.10536399 0.07781115 -0.004941042 0.011311299 0.012446049 -0.020236295 0.03448556 0.004021889
-0.03995629 -0.057400312 -0.060783032 0.05864307 -0.08031203 -0.027176924 0.0036453658 0.049715135
-0.06952431 -0.098903224 0.046179377 0.11208751 -0.011021529 9.8572826e-05 0.07596368 0.08641598
0.03154667 0.011468115 -0.11831326 -0.03152545 0.10900808 0.09869728 0.031330917 0.005746032
-0.0049292212 -0.11618826 0.030461783 -0.09333517 -0.06177472 0.077644676 -0.07974966 0.043093204
0.061197333 -0.11085803 0.10402511 -0.011243684 -0.043147914 0.069627754 0.0875914 0.038385864
-0.004804622 0.0352541 0.08571772 0.044541016 0.036647424 -0.11309531 0.09514493 -0.052616157
0.025082136 0.12763563 0.05930733 -0.10868932 -0.053574987 0.054109216 -0.043177254 -0.045249783
-0.047909014 0.03866087 0.09621316 -0.0979467 0.07531387 -0.08471119 0.057493843 0.028764378
-0.04130694 -0.049665328 0.11851185 0.031372275 0.10756764 -0.080073394 -0.06888153 -0.061137512
0.075967304 0.032181606 -0.112134725 -0.008218804 0.03401758 -0.104453415 0.102295324 0.07706439
0.11957394 0.03631062 -0.04630214 0.06949093 0.014183148 0.035133958 0.0451732 0.020624952
0.07844122 -0.014027487 -0.08492349 0.05380848 0.04472217 0.112063006 -0.06435291 -0.02086953
0.07364243 0.03449715 0.05302302 -0.098239176 -0.018437607 0.075032234 0.121738285 0.115122154
0.0136148995 -0.08275568 0.067337625 0.116496004 -0.09681971 -0.017350843 -0.09826001 0.030148221
-0.06483717 0.018329814 0.0389318 0.038933087 -0.11293826 -0.033341672 -0.032502122 -0.08561361
-0.09564433 -0.062084176 -0.06160022 -0.11261876 -0.013580298 0.099031456 0.07930293 -0.044692323
-0.022531709 -0.08329111 0.035256483 -0.10298763 -0.0036349418 -0.05897772 0.04771909 -0.014047264
0.103620246 -0.06976972 -0.09498743 0.090061955 -0.010261166 0.051137313 0.051174574 0.06547543
0.074434526 -0.052839436 -0.007593963 0.04198686 0.08796187 -0.11242313 -0.11212565 0.066639066
-0.1036001 -0.07527759 -0.046864066 0.13101393 -0.10099672 -0.11326111 0.023970157 0.020854378
-0.0011706436 -0.03768674 -0.03720503 -0.11315898 0.08800796 -0.013852077 0.10294209 0.0020710896
0.06420916 0.118206486 0.073258884 0.0060077314 -0.1104957 0.022917343 -0.03638137 -0.010157209
0.03721556 -0.031885296 -0.077762015 -0.0315909 -0.033621367 -0.07643458 0.11340449 0.09988963
-0.0951036 0.026110468 -0.111152135 0.055981923 0.073128305 0.111108124 -0.05884311 0.04666461
-0.078939185 0.029591369 -0.014081312 -0.062464 0.043665852 -0.014157519 0.057927337 0.003354688
-0.10841433 -0.10307035 0.09405862 -0.11056595 -0.04656474 0.07442809 0.020367136 0.029248657
-0.06755707 0.04607969 -0.07349889 -0.059356626 0.059720606 -0.12436518 0.05745252 0.10028612
0.0076151267 0.055899307 -0.053054895 0.1090373 0.06886787 0.08848404 0.072492726 0.018685216
00000000: 19fc 873c 1ec3 f33b ff00 5d3d 62df f73d
00000010: 0fb3 f0bd 702a db3d 1690 c83a eebf c7bc
00000020: d511 b5bd faec de3c dc9d c13d 2b98 a93c
00000030: 78e1 3cbd 4fac a53c 4d54 45bd 83ab 3e3c
00000040: df58 12bd b77f bcbd cf2a b93d 8945 99bc
00000050: 7174 cc3d 227a b8bc 7d7d b93d d4e1 8f3d
00000060: 13c9 d7bd 745b 9f3d 77e8 a1bb 0753 393c
00000070: 83ea 4b3c 96c6 a5bc bb40 0d3d 0dca 833b
00000080: 35a9 23bd 971c 6bbd a1f7 78bd b733 703d
00000090: a27a a4bd 24a2 debc 17e7 6e3b 19a2 4b3d
000000a0: c362 8ebd c68d cabd 9626 3d3d 238e e53d
000000b0: a593 34bc e2b8 ce38 d992 9b3d dcfa b03d
000000c0: 1537 013d c3e4 3b3c 394e f2bd d520 01bd
000000d0: a13f df3d cd21 ca3d d954 003d 3649 bc3b
000000e0: 4e85 a1bb 1cf4 edbd fd8a f93c 8226 bfbd
000000f0: 7d07 7dbd 2c04 9f3d ca53 a3bd 8082 303d
00000100: 0eaa 7a3d 8909 e3bd 1e0b d53d 6e37 38bc
00000110: debb 30bd ff98 8e3d 1f63 b33d 7f3a 1d3d
00000120: 1770 9dbb 9a66 103d c68c af3d a470 363d
00000130: 9c1b 163d 849e e7bd 58db c23d 0a84 57bd
00000140: 0d79 cd3c eab2 023e 3eec 723d 8298 debd
00000150: 7271 5bbd a0a1 5d3d a2da 30bd d657 39bd
00000160: 3e3c 44bd dc5a 1e3d 680b c53d 4898 c8bd
00000170: 293e 9a3d 0f7d adbd aa7e 6b3d 46a3 eb3c
00000180: 7731 29bd df6d 4bbd 57b6 f23d 3780 003d
00000190: 6c4c dc3d 85fd a3bd c211 8dbd 546b 7abd
000001a0: bf94 9b3d dcd0 033d e4a6 e5bd 2aa8 06bc
000001b0: 0556 0b3d aceb d5bd 3680 d13d efd3 9d3d
000001c0: 2fe3 f43d 72ba 143d 50a7 3dbd 4351 8e3d
000001d0: 6f60 683c a0e8 0f3d 8907 393d a9f5 a83c
000001e0: caa5 a03d 8bd3 65bc 5eec adbd 4866 5c3d
000001f0: 982e 373d 4a81 e53d 75cb 83bd 94f6 aabc
00000200: d8d1 963d e24c 0d3d ab2e 593d 9f31 c9bd
00000210: 770a 97bc 80aa 993d ec51 f93d 2ac5 eb3d
00000220: 0711 5f3c cf7b a9bd 4fe8 893d 7595 ee3d
00000230: 6a49 c6bd 5b23 8ebc 8b3c c9bd 67f9 f63c
00000240: 5ac9 84bd 6828 963c f376 1f3d 4d78 1f3d
00000250: 2d4c e7bd 4791 08bd f220 05bd 3056 afbd
00000260: 2de1 c3bd fa4b 7ebd 8350 7cbd aaa4 e6bd
00000270: e67f 5ebc 01d1 ca3d 9369 a23d 4c0f 37bd
00000280: 6b94 b8bc 8894 aabd 1a69 103d 2eeb d2bd
00000290: 3438 6ebb 9f92 71bd 1875 433d 7f26 66bc
000002a0: da36 d43d 6de3 8ebd c588 c2bd 6772 b83d
000002b0: 731e 28bc 5c75 513d 6e9c 513d fb17 863d
000002c0: 2171 983d 2a6e 58bd c7d6 f8bb 6afa 2b3d
000002d0: 5a25 b43d 193e e6bd 22a2 e5bd 107a 883d
000002e0: 4a2c d4bd 232b 9abd 89f4 3fbd 8428 063e
000002f0: 5ed7 cebd 71f5 e7bd 105d c43c cdd6 aa3c
00000300: 4870 99ba 695d 1abd 4d64 18bd e5bf e7bd
00000310: 843d b43d d2f3 62bc 4dd3 d23d 1ebb 073b
00000320: 1880 833d 3e16 f23d c108 963d 81dc c43b
00000330: 924b e2bd 27bd bb3c a204 15bd 6c6a 26bc
00000340: 586f 183d 289a 02bd b141 9fbd 7665 01bd
00000350: 8fb6 09bd bc89 9cbd 9d40 e83d ef92 cc3d
00000360: adc5 c2bd 9fe5 d53c bba3 e3bd 4d4d 653d
00000370: 4bc4 953d a88c e33d 7905 71bd 6423 3f3d
00000380: deaa a1bd 9969 f23c 4eb5 66bc 40da 7fbd
00000390: f7da 323d f0f4 67bc 3745 6d3d 53da 5b3b
000003a0: 5508 debd 8c16 d3bd cea1 c03d 6770 e2bd
000003b0: abba 3ebd c16d 983d fbd8 a63c e19a ef3c
000003c0: 5c5b 8abd 0fbe 3c3d 9686 96bd ef1f 73bd
000003d0: 989d 743d 2cb3 febd 5553 6b3d cf62 cd3d
000003e0: 5088 f93b acf6 643d 1750 59bd f34e df3d
000003f0: 990a 8d3d 1f37 b53d 1177 943d bd11 993c
