NLE_A2C/Sub2_24.968/netState.pkl (torch, 166656 bytes, 9 tensors)

body.0.weight f4 [64, 229]
000000 b6 c9 98 bc 98 a5 e5 bc c4 09 54 3d 17 a8 87 3d
       -0.01865087 -0.028033063 0.051767126 0.066238575
000010 48 9d 7d bd a3 e2 07 3d 5a d6 02 bd 25 04 18 3c
       -0.061917573 0.033175122 -0.031942703 0.009278332
000020 91 ad fd bc e1 2d 75 3c d1 74 7d bd 64 58 07 3d
       -0.030966552 0.014964552 -0.061878983 0.03304328
000030 da b2 5b bd fb 2a 05 bd e8 f6 a2 bc 99 5a 89 bd
       -0.053637363 -0.032511692 -0.019893125 -0.06706733
000040 67 9b 94 bd 82 8c 98 bc a6 7a 32 3c 72 7a 71 bd
       -0.07256203 -0.018621687 0.0108934995 -0.058954664
000050 6b 11 e3 3b 06 98 92 bc bc a3 2c bd 00 5d 64 3d
       0.0069295666 -0.017894756 -0.042148337 0.055752754
000060 69 d6 7a 3d fe 09 19 bc 5e 13 7a 3d 37 e1 9e bc
       0.061239634 -0.009340761 0.061053626 -0.0193945
000070 37 15 14 bd 0d a2 7d bc 73 2a 33 3d 5f c9 81 3c
       -0.036153045 -0.01548053 0.043741655 0.015843092
000080 6c 73 1b 3d cc 78 2b bd b2 7f 3c 3d 29 aa 75 3d
       0.03795187 -0.041863248 0.046020217 0.05997673
000090 d3 4e 0a bd d0 ce 31 3a 5b 2b 06 bd 74 2e 25 bb
       -0.03376658 0.00067828316 -0.03275619 -0.002520469
0000a0 a5 03 c6 bc ff 03 8c bc 87 a5 47 bd 55 41 8c bd
       -0.02417166 -0.01709175 -0.048741844 -0.068483986
0000b0 06 28 91 bd 37 27 5a bc c4 2b e8 bb 40 63 93 bb
       -0.07087712 -0.013315014 -0.0070852954 -0.0044979155
0000c0 1b b7 a9 3c 3c 8a 05 3d 0e cb 8c bd 4f ac 02 bd
       0.020717194 0.032602534 -0.06874667 -0.031902608
0000d0 ed 70 f0 3c cd 0f 85 bc ae 5b 19 3d 49 1b 82 3d
       0.029350722 -0.016242886 0.03744095 0.063528605
0000e0 77 dd c1 bc 2c c0 0b 3d 5f 75 08 bd 0f 6d 68 bd
       -0.023665173 0.034118816 -0.03331506 -0.05674463
0000f0 21 8a 2d ba ea 82 b7 3c 79 ab 4a 3d 27 58 ce 3c
       -0.0006620009 0.022401292 0.049479935 0.025188519
000100 49 a9 87 3b 6d 69 22 3d df ef 66 3d 07 9b 98 bc
       0.0041400534 0.039651323 0.056381103 -0.01862861
000110 b2 35 a5 bc fe 3d e7 bc 06 3e 07 bd b4 8a 3b bc
       -0.020167205 -0.028227802 -0.033018135 -0.011446644
000120 22 2b 1a bb 6d 7a 0a bd 98 ee 42 3c 72 43 34 3c
       -0.0023524244 -0.03380816 0.0118977055 0.011002408
000130 e9 26 66 3d 41 95 36 ba 8e 34 73 3b 1d 74 08 bd
       0.05618945 -0.00069649896 0.0037110182 -0.03331386
000140 82 51 3f 3c 9f b3 3b bc 23 43 81 bd e1 0a c1 3c
       0.011677148 -0.011456399 -0.063116334 0.023564758
000150 b5 d9 5f 3d 5a e0 fe bb b2 f3 11 bd 2f db cf 3c
       0.05465098 -0.0077782096 -0.035632797 0.02537307
000160 a0 9a 5c 3c 5f c6 23 ba 12 4f ce 3c 8e 05 bb bc
       0.0134646 -0.0006247516 0.025184188 -0.022829797
000170 95 8d 92 3b 27 48 4d bd a2 b9 02 3d c2 f6 b6 bb
       0.0044724443 -0.050117638 0.031915314 -0.005583615
000180 06 ae 1b bd 6d 95 63 bd d8 bd 76 bc f7 00 04 ba
       -0.03800776 -0.055562425 -0.015059911 -0.0005035544
000190 58 86 58 bd 26 b3 9a bb a3 07 2b 3d a5 53 e2 bc
       -0.052862495 -0.004721063 0.04175533 -0.027627775
0001a0 d8 3d da bb 68 58 0c bd 6b bd 6c bc 37 82 95 3c
       -0.0066602044 -0.034264 -0.014449458 0.018250568
0001b0 26 46 03 3c b3 b8 4e bd 3f 4a 30 3d fe 5d 24 3c
       0.00801233 -0.05046911 0.043039557 0.010032175
0001c0 16 0a 45 bc fb 05 64 bc b8 18 84 39 35 e9 3f bc
       -0.01202633 -0.0139174415 0.0002519542 -0.011713316
0001d0 8b d4 08 bd 46 85 09 bd d0 55 62 bd 40 07 df bb
       -0.03340582 -0.033574365 -0.05525762 -0.006806284
0001e0 d6 41 95 3b 60 79 02 3c 1c ce 69 bc 17 80 c2 bc
       0.0045549674 0.007963508 -0.014270332 -0.023742719
0001f0 81 4e 55 bc be e9 d9 3c bf 05 89 bc 90 70 54 bd
       -0.013019205 0.026600715 -0.016726373 -0.05186516
000200 d0 46 93 bd 94 8d 51 3d 3f c9 36 bd 1d 32 62 bd
       -0.07191241 0.05116041 -0.044625517 -0.055223573
000210 b2 18 da bc f3 d5 8c bd f8 ff d3 3b 2d 6e 28 3d
       -0.026623104 -0.06876745 0.006469723 0.041120697
000220 b4 1d 88 3d 0e 57 51 3d 26 52 81 bb 1f 0a 29 bd
       0.066462904 0.051108412 -0.0039465604 -0.041269418
000230 3c 3c 4a 3d ed ac 6f 3d e1 c1 95 3a 8e e2 8b bc
       0.04937385 0.058514524 0.0011425578 -0.017075803
000240 b3 bd c6 bb 46 61 ba 3c 57 24 43 bd 68 8b a7 bc
       -0.0060650944 0.022751462 -0.04764208 -0.020452216
000250 bb 05 22 bd 6c cc d0 3c f3 10 1f 3d f9 2b 2b bd
       -0.039556246 0.025488101 0.038834523 -0.041789982
000260 09 79 d4 bc 00 a7 63 bd 2d 35 7d ba e3 3b c6 3b
       -0.02593662 -0.055579185 -0.0009659108 0.0060496195
000270 b0 53 0c 3c 37 ea 9f 3b 20 d3 55 bd 39 63 28 3d
       0.0085648745 0.0048802155 -0.052203298 0.04111025
000280 ce f8 85 bd 3e 77 11 bd a6 fe 4b 3d 9c b7 5e bd
       -0.06541596 -0.03551411 0.0498034 -0.054374322
000290 9e 34 82 bd 1b 27 a5 bc f1 0d fd 3c 61 fc 96 bc
       -0.06357692 -0.020160249 0.030890437 -0.01843089
0002a0 95 89 84 bd b0 fd 18 bd 32 49 0f 3d a1 f0 07 bc
       -0.06471554 -0.03735131 0.034981914 -0.0082971165
0002b0 96 3f 0c bc 5a 49 21 bd 8a d3 4e 3d ee 23 ec 3b
       -0.008560082 -0.039376594 0.050494708 0.0072064316
0002c0 b3 5b 89 bd a3 3c db bc a0 55 20 3d 45 7d 82 bd
       -0.06706943 -0.026762312 0.03914416 -0.063715495
0002d0 c7 b4 b5 bb 1d b3 43 bc 71 83 36 bd bd 8c 60 3d
       -0.005545232 -0.011944559 -0.044558946 0.05482172
0002e0 bb 9d e2 bc fb 1b 4b bd 16 39 68 bd 45 7a ac 3a
       -0.027663102 -0.04958723 -0.056695066 0.0013158998
0002f0 0f 2b 86 3d 1b 29 06 bc fa 49 c7 3b 68 b4 8d bc
       0.065511815 -0.008188511 0.0060818167 -0.017297938
000300 a8 8f 96 3a 6c 98 24 3d 7e 34 af ba 21 2c cb bc
       0.0011486905 0.040184423 -0.0013367084 -0.024801316
000310 5a f8 ec 3c 0c 77 57 bd 88 69 87 bd 6d cc 49 3d
       0.028927017 -0.052603766 -0.06611925 0.04926722
000320 7b b8 19 bd a1 fe 5f 3d ea 08 13 3d c9 29 59 3c
       -0.03752945 0.054686192 0.035897173 0.013254591
000330 ea dd 44 bd fd 11 54 3d 4f c0 f2 bc 22 7a d4 bc
       -0.048063196 0.051774967 -0.029632716 -0.025937144
000340 5f a6 8a 3d d8 be f4 3b a1 b2 6d bd d2 dc 31 3d
       0.06770014 0.0074690394 -0.058031682 0.04342348
000350 07 d0 17 3c be 09 e5 bc e4 e9 a2 bb a4 b4 db 3b
       0.009265906 -0.027958747 -0.0049717296 0.0067048836
000360 86 43 e1 3c be 09 8e 3c fb 9f 82 3c 7b 21 64 3d
       0.027498018 0.01733863 0.015945425 0.055695992
000370 d0 10 b7 3b 37 6a 59 bd 88 27 5f 3b 90 09 06 bd
       0.005586721 -0.05307981 0.0034050662 -0.032723963
000380 10 bf c6 3c 72 45 10 bd 04 19 4e 3a a2 dd 22 bd
       0.024261028 -0.03522248 0.0007862004 -0.039762147
000390 01 1c bd 3c 2d cc e9 3c 9c 62 32 bd a5 bf 3b bd
       0.023084642 0.028539741 -0.043551072 -0.045837063
0003a0 45 f8 41 bd 28 0a 4f bd ac 1f b8 bb c9 58 15 3c
       -0.04735591 -0.050546795 -0.00561901 0.009115406
0003b0 f4 9e e4 bc 8b 72 7a bd 42 a2 57 3d 74 2a 67 bd
       -0.027907826 -0.061144393 0.052644975 -0.05643697
0003c0 2b f8 82 3c 3f ca 23 bd 2d 44 72 bd a0 44 7e 3c
       0.015987476 -0.0399878 -0.05914705 0.015519291
0003d0 f6 8d 22 3d 65 45 3c bc 00 60 4f bd 01 21 47 3d
       0.039686166 -0.011491154 -0.050628662 0.04861546
0003e0 b4 34 51 3d d4 fc 3f 3d 35 5d 93 3c e6 82 e3 bc
       0.051075652 0.046871975 0.01798878 -0.027772378
0003f0 88 f9 84 bd 90 17 f8 bc 4f 3c 72 bc 94 15 8f 3c
       -0.06492907 -0.030284673 -0.0147848865 0.017466344

body.2.weight f4 [64, 64]
000000 30 6f 21 3d d3 70 59 bc 87 06 ed 3d b7 b7 ff 3d
       0.039412677 -0.013271528 0.115735106 0.12486213
000010 ec 01 8b bd 63 51 23 bc cb 14 0d 3e 72 22 ab bd
       -0.06787476 -0.009968135 0.13777463 -0.08356179
000020 ff 17 ba bc 2d 4c 5a 3d 43 f0 b6 3d 99 a0 14 bd
       -0.02271652 0.053295303 0.08932545 -0.03628597
000030 2c 6f 07 3d 21 80 f8 3d 67 c4 a4 3d e0 57 de 3d
       0.033065006 0.12133814 0.08045273 0.108566046
000040 d4 7e 1f bd 7b 8c cb bd 01 1b 63 3d 6d 00 bd bd
       -0.038939312 -0.09938904 0.055445675 -0.09228597
000050 19 60 ac bd 43 b1 14 bd f2 1f 41 3d 7e 12 af 3d
       -0.08416767 -0.036301862 0.047149606 0.08548449
000060 8c 0b d0 bd a5 b6 f2 bc fd ac b6 3c 4d 9d 95 bd
       -0.101584524 -0.029628107 0.022299284 -0.07305393
000070 75 70 af 3d 89 76 ad 3b 4f 04 93 3d 1e c5 16 bc
       0.08566371 0.0052936715 0.07178556 -0.00920227
000080 ac da 02 bd f1 f0 13 bd e4 51 05 bd 03 cf 9c 3d
       -0.031946823 -0.03611845 -0.0325488 0.07656672
000090 fe cf 55 bd 5c e5 a3 bd fc 8e 83 3d 7a c8 82 3d
       -0.05220031 -0.08002731 0.064237565 0.06385894
0000a0 93 12 3c bd 84 2c dd bd 5f 2e 8e 3d 5f 7e c5 3d
       -0.04591615 -0.10799506 0.06942438 0.09643244
0000b0 15 ce a6 3d 9b 0d bb 3d c2 8b 8e bb 92 44 cc 3d
       0.08144776 0.091334544 -0.0043501565 0.09974016
0000c0 7d 73 29 bd 22 fc 85 bd 16 23 2f bc b3 17 98 3d
       -0.041369904 -0.06542231 -0.0106895175 0.07426395
0000d0 9d b1 bd bd 3e 83 96 bd 02 b3 ba 3d 15 dd f6 3d
       -0.09262393 -0.07349251 0.09116174 0.12053887
0000e0 b6 13 64 bb 5b 5a 42 bd 26 51 85 3d e8 d6 06 3e
       -0.0034801788 -0.04744945 0.065096185 0.13167918
0000f0 c8 0e eb 3c 04 e7 99 bd da 32 a8 bd 77 ee c4 bc
       0.028693572 -0.07514766 -0.08212824 -0.02403949
000100 30 e2 35 3c a7 19 0e be a7 f2 7e 3c b5 6c 7f 3d
       0.011101291 -0.13876973 0.0155607825 0.06235953
000110 eb f3 c4 3d ed d0 e2 3d 23 83 cb 3d 0d ee 0b 3b
       0.09616836 0.11075006 0.09937122 0.0021351606
000120 77 21 92 bc d2 60 ea bd 7e c6 9c bc cf 6b e0 bd
       -0.017838223 -0.11444248 -0.019137617 -0.10958063
000130 3b 8d 14 bd 06 19 42 bd 0b bc d1 bd b8 4a 93 bd
       -0.0362675 -0.047387145 -0.102409445 -0.07191986
000140 3a 82 ed bd 44 c8 d8 3d 16 f0 d4 3a 46 e0 fb 3d
       -0.11597104 0.10585073 0.0016245868 0.12298636
000150 19 a2 09 3d b1 fd bf 3d 02 f9 4c bd 5b 77 2f 3d
       0.033601854 0.0937456 -0.05004216 0.042838436
000160 8d ab 59 bd 61 22 53 3c f2 dd ba bd db ae a4 3c
       -0.05314212 0.012886615 -0.09124364 0.020102909
000170 13 7a 04 3b 37 b6 01 3e 13 8b 98 3c 90 53 b8 3d
       0.0020214363 0.12667166 0.018621003 0.09000313
000180 35 d9 ad bd 28 53 c1 bc 3a 84 13 3d 3a fe a4 3d
       -0.084886946 -0.023599222 0.036014773 0.08056302
000190 1a 61 38 3d ff b3 6c 3d da 22 cf bd 6f 7b 88 bd
       0.04501448 0.057788845 -0.10114069 -0.06664168
0001a0 2d 84 b4 bc a7 50 88 bd ac dd 0b 3e 4e 56 a6 3d
       -0.022035683 -0.06656008 0.1365878 0.0812193
0001b0 6e 95 26 3d 99 ab b0 bd e3 4a 2c 3d c5 e1 6e 3d
       0.04066985 -0.0862648 0.042063605 0.05832078
0001c0 c3 1b 9e bd 53 26 e3 3c 3e 0b d1 bd 8e f3 fc 3c
       -0.07720139 0.027728235 -0.102072224 0.030877855
0001d0 64 0c d1 bd d1 8e a9 bd 3c dc 8b bc b7 9e 9b bb
       -0.102074414 -0.08279193 -0.01707279 -0.004749145
0001e0 dc 33 db 3d a7 f8 7c 3d f2 55 8f 3d 0b 55 d4 3d
       0.10703251 0.06176057 0.06998815 0.10367783
0001f0 9c 17 92 bd 6a 66 d5 bd 20 71 e1 bd 7c c7 f4 bd
       -0.071334094 -0.104199246 -0.11007905 -0.11952111
000200 3e 1b 69 3d 19 96 b7 3d c3 da 05 bd 4a 20 bd 3c
       0.056910746 0.08964176 -0.03267933 0.023086686
000210 ee 0b b3 bd 67 36 8c bc 51 1f 15 bd ae 00 80 bc
       -0.0874251 -0.017115785 -0.03640682 -0.015625324
000220 ee a1 7d 3c 5a 7d 60 3d 1b 92 0b 3e ae 49 08 3e
       0.015480502 0.054807045 0.13629954 0.13309357
000230 6c ac a7 bd 0b d8 b7 bd b9 b7 59 3c a3 9a 76 bc
       -0.08187184 -0.08976754 0.013288432 -0.015051517
000240 5c 70 72 3d 02 17 19 3d 55 ee 98 bd 29 e3 03 3e
       0.059189186 0.037375458 -0.07467333 0.12879623
000250 7a 1f 83 bd 91 21 c1 3d a1 28 b7 bb ac b5 b5 3d
       -0.06402488 0.094302304 -0.00558956 0.08872542
000260 37 d1 58 3c e4 28 11 bd cc 78 58 3d 68 ab d5 bd
       0.013233474 -0.035439387 0.052849576 -0.10433084
000270 d8 1c 97 bb c4 99 e8 bd 41 ba c1 bc cf 25 3f bc
       -0.0046115927 -0.113574535 -0.023648383 -0.011666729
000280 f5 12 bc bc f9 86 cb bd 38 52 ab 3c 7f 0a 52 3d
       -0.022958258 -0.09937853 0.020913228 0.05127954
000290 4b f7 0b bd 15 b5 fc bc c7 49 37 bb 27 61 6a 3d
       -0.034171384 -0.030848065 -0.0027967559 0.057221558
0002a0 bc a1 ea bc a8 21 06 3e 59 9a 08 3d aa 42 ab bd
       -0.028641574 0.13098776 0.033350322 -0.083623245
0002b0 94 da f4 bd 97 0f 8d 3d 52 d0 bb 3c fe 1f d3 3d
       -0.11955753 0.06887739 0.022926483 0.103088364
0002c0 7b c5 05 3e 32 44 0e 3d f2 7d e6 3d d2 fb 37 3d
       0.13063614 0.034733005 0.11254491 0.04491789
0002d0 f1 99 dc bd 41 e7 ea 3d 37 d5 9a bb e4 b3 42 bd
       -0.107715495 0.114698894 -0.004725124 -0.04753484
0002e0 1a 6a 9c 3d af 13 fa 3c 4e 96 cc bc 4b fd 4f 3d
       0.07637425 0.030526964 -0.024974015 0.05077867
0002f0 59 70 af 3d 34 25 8b 3d 80 4d aa bd 19 91 01 3e
       0.085663505 0.06794205 -0.08315563 0.12653007
000300 bd c8 ee bc 87 81 50 3d 5e 89 f1 bd 7d 40 9c bd
       -0.029148454 0.050904777 -0.11793779 -0.07629488
000310 91 ba e9 bd c1 47 ac bd 7f 41 d6 bd 91 2c 7d 3d
       -0.11412538 -0.084121235 -0.10461711 0.06181008
000320 88 8a 57 bc a9 a2 a5 bd ae e5 08 bc 17 9c 1e bc
       -0.013155587 -0.080876656 -0.008355541 -0.009680769
000330 49 c5 0b 3e 3e a3 e0 bd c7 1a ff 3d f5 7b 93 3d
       0.13649477 -0.10968636 0.12456279 0.07201377
000340 3e 39 77 bc 3d 89 f4 bb 5b 26 2f bd 60 9a b7 3c
       -0.015089331 -0.007462649 -0.042761188 0.022412479
000350 21 f2 63 3d bb ee 99 bd e3 a9 af 3d 7f 44 1d bd
       0.055650834 -0.07516237 0.08577325 -0.0383954
000360 84 dd 6d bd b1 a5 99 3d ac bf a2 3d 22 b0 38 bc
       -0.058072582 0.07502306 0.07946715 -0.011272462
000370 55 f4 51 bd 17 39 26 3d b7 bb 9c bd ad 5b 3f bd
       -0.051258404 0.04058179 -0.07652991 -0.04671829
000380 04 37 02 3e f3 89 ba 3c 0a 62 86 bc 3f cf 9b 3c
       0.127163 0.022770857 -0.01640417 0.019019721
000390 df d4 d7 3d 62 a7 42 3d 22 53 66 bc f1 53 67 bd
       0.10538649 0.04752291 -0.014057906 -0.056476537
0003a0 6d f0 49 3d 92 1e bb bd 91 8f 4e bb 88 0f 05 3e
       0.049301554 -0.0913669 -0.0031518678 0.12994206
0003b0 8c 3e a7 bc 13 f1 33 bd 5f 73 10 bd 80 26 b4 bd
       -0.020415567 -0.04393108 -0.035266276 -0.08796406
0003c0 bb e4 77 ba f8 65 bb bd cd 88 28 3c d3 55 59 bd
       -0.0009456386 -0.09150308 0.010286522 -0.053060364
0003d0 12 da bb bd 43 e4 e2 bd 1e d2 bd 3d b4 d7 07 3d
       -0.09172453 -0.11078694 0.09268592 0.033164695
0003e0 29 79 89 bd 8a 89 b8 3d 72 56 5f 39 26 1a dd 3d
       -0.067125626 0.090106085 0.0002129914 0.10796003
0003f0 3c f2 eb bd a1 c4 cb bd 98 30 ce 3d e8 49 57 bd
       -0.11520812 -0.09949613 0.10067862 -0.052560717

body.4.weight f4 [64, 64]
000000 8b b1 50 3d f1 53 b0 bd cd 73 f1 3c 6c c6 ce bd
       0.05095057 -0.086097606 0.029474163 -0.1009644
000010 f6 a9 1d 3d 3a 80 b1 bd 90 6d 90 bd 19 5c b6 3d
       0.038492166 -0.086670354 -0.070521474 0.08904285
000020 53 e7 69 3c 07 75 bb bd 61 e8 a5 3d 27 11 0f 3d
       0.014276343 -0.091531806 0.081009634 0.034928467
000030 b4 2b c0 3d 3d ac 27 3d 6f 9d f1 bd 8e 12 39 bd
       0.09383336 0.040935744 -0.11797606 -0.04518371
000040 d4 c0 eb 3d 08 cd fc 3c 27 64 1c 3d 00 da d6 bd
       0.115113884 0.030859485 0.03818145 -0.10490799
000050 68 04 c7 bd 67 7e 77 3d 17 aa 25 bd d7 29 9c 3d
       -0.09717637 0.06042328 -0.040445413 0.07625168
000060 7e 6f 7b 3c a6 4f 95 3d f8 20 d5 3c a8 c6 e4 3d
       0.015346406 0.07290582 0.026016697 0.11170703
000070 fc ef cc 3d bc 09 c2 3b b2 31 e3 bd bc cc 6f 3d
       0.10006711 0.0059215706 -0.11093463 0.05854486
000080 e0 48 70 3b 64 66 a3 3d 85 e8 a0 3d 61 f1 8d 3d
       0.003666453 0.07978514 0.078568496 0.06930805
000090 61 24 51 3b a8 ae 14 bd 12 95 46 3d f4 b8 fa bd
       0.0031912553 -0.036299378 0.04848201 -0.12242308
0000a0 eb 27 bc bd c8 ef e4 3d dd 80 d1 bc b4 b8 d6 3d
       -0.09187301 0.11178547 -0.025574142 0.10484448
0000b0 3b e0 3c bd 8c 78 d2 3d da cb 4b 3c a7 26 e2 bd
       -0.04611228 0.10276899 0.012438739 -0.110425286
0000c0 19 78 fd 3d 93 c9 2d bd 4a 67 eb bd 19 5f f1 bd
       0.123764224 -0.042428564 -0.1149431 -0.117857166
0000d0 77 67 53 3d e3 11 fc bb 6d a0 a2 bc 3e 62 8e 3c
       0.051612344 -0.007692562 -0.019851888 0.01738083
0000e0 d7 9f e2 bc e4 de 90 3d 68 59 f7 3c 27 76 c5 bd
       -0.027664108 0.07073763 0.030194 -0.096416764
0000f0 14 1b b0 bd 89 fd bc 3d 37 8f 81 bd 51 11 cb bc
       -0.08598915 0.092280455 -0.06326144 -0.02478853
000100 7e 8e 44 3d 85 fe 12 3d 8e 25 81 3d 7d ed 90 3a
       0.047987454 0.03588726 0.06305991 0.0011057105
000110 cf cc d3 bd f7 41 44 bd 5e c0 07 bd 95 8d d6 bc
       -0.103417985 -0.04791447 -0.03314244 -0.026190558
000120 ec 8f 11 bd 8a 4d f5 bd 19 fe b1 3c d0 cb a3 bd
       -0.035537645 -0.1197768 0.021727609 -0.079978585
000130 cc 30 5d 3d d5 69 a2 bc 97 d5 45 bd fc bd ce 3d
       0.054001614 -0.019825855 -0.0482994 0.100948304
000140 8b fb fe 3a 18 15 da bb 7b ec 4a 3d f0 50 b5 3d
       0.0019453628 -0.0066553466 0.04954193 0.08853328
000150 bb 2e a0 bd c5 88 c4 3d de 46 8e 3d 0b ab a2 bd
       -0.07821413 0.09596399 0.069471106 -0.0794278
000160 5f 91 ba 3c 70 c3 d8 3a 8c 55 63 bd ab ad d0 3d
       0.022774396 0.0016537737 -0.055501506 0.101893745
000170 9d 28 b4 bd 0a 9c e1 3d af 71 ec 3d 5d 10 bf bd
       -0.08796809 0.1101609 0.11545121 -0.09329293
000180 3e 4a e5 bd 41 24 d0 bd 1d c7 e7 3c c1 fa 32 bd
       -0.11195801 -0.10163165 0.028293187 -0.04369617
000190 09 44 e6 bc 02 a8 b8 3d 21 44 13 3d dd 7c c9 3d
       -0.028108614 0.0901642 0.035953645 0.09838269
0001a0 37 a9 90 3b 03 dc 53 bd dc b1 af bd 7d 57 37 bd
       0.004414703 -0.05172349 -0.08578846 -0.04476117
0001b0 7f ac ab bc d1 e2 ac bd eb 5e ca 3d e5 72 06 3d
       -0.020956276 -0.08441699 0.098813854 0.032824416
0001c0 1a e6 51 3d 9a 8d 95 3d d4 59 88 3d a0 11 80 bd
       0.051244833 0.07302399 0.06657758 -0.06253362
0001d0 a2 4f a4 bd 26 b0 e7 bc d0 87 67 3d ea fc 85 3d
       -0.08023001 -0.028282236 0.056526005 0.0654238
0001e0 50 aa c1 bc 81 66 f8 bd 31 88 c0 3d 06 df 82 3c
       -0.023640782 -0.12128926 0.094009764 0.015975486
0001f0 1d 63 15 bd 7a bb 34 bd 0c fb 98 bd 87 be 8b 3c
       -0.036471475 -0.044124104 -0.074697584 0.017058624
000200 a5 ba 62 bd c5 5b 5d bc 69 17 6c bd aa 7f dd bd
       -0.05535378 -0.013510649 -0.057639513 -0.108153656
000210 1a d1 ec bd 01 63 45 3d 4a c6 e5 bb 96 8a e9 3c
       -0.115633205 0.04819012 -0.0070121633 0.028508466
000220 df 84 ee bd 95 a0 98 3d 93 7b 6d bc dd 87 99 3d
       -0.11646437 0.074525036 -0.014494794 0.07496617
000230 93 b6 75 3c b5 6e e6 3d fd 64 66 3d f0 70 bc 3c
       0.014997142 0.112515844 0.056248654 0.023003072
000240 58 47 c8 bd 3e 34 99 3c c4 15 8f bc ab 07 9d 3d
       -0.09779233 0.018701669 -0.017466433 0.07667478
000250 c2 94 ed bd 43 13 68 3d 20 96 64 3c 75 02 1e bd
       -0.11600639 0.056658994 0.013951808 -0.038576562
000260 05 89 8b 3d 81 f4 e6 bc b0 e8 e2 bd d0 20 b6 bd
       0.06813244 -0.02819276 -0.11079538 -0.08892977
000270 03 09 d5 bc 0b c1 8d 3d 6d 1f af bc 34 32 b0 bd
       -0.026005274 0.06921586 -0.02137729 -0.086033255
000280 52 60 73 bd 31 2d f1 bd f2 be 9b bd 58 d4 96 bc
       -0.05941803 -0.11776198 -0.07604779 -0.0184118
000290 dd 03 a2 bd 0e f3 da 3c 41 54 28 3d 41 bf 99 3d
       -0.07910893 0.026727226 0.041095976 0.07507182
0002a0 31 72 61 3d 72 d7 fc bd 38 71 11 bd 52 a9 ee 3c
       0.055040542 -0.123457804 -0.035508364 0.029133473
0002b0 da fa cf 3d ac 55 0a 3c 74 f8 07 be cb 89 3c 3d
       0.10155268 0.008443277 -0.13278371 0.046029847
0002c0 d2 3c c2 bd 9e f2 c7 bd 89 fd 9f 3d c0 14 a3 bd
       -0.09484257 -0.097630724 0.0781203 -0.07962942
0002d0 53 9c d5 bd e0 99 06 3d 93 83 75 bd 64 51 bf 3c
       -0.10430207 0.03286159 -0.059939932 0.02335424
0002e0 d5 2e 01 3c 93 af 5c bc 0a 18 0d bd 81 eb bc 3d
       0.007884701 -0.0134695945 -0.034446754 0.09224606
0002f0 df c9 b8 bd e7 c5 c3 3d b5 5e 8c bd d9 5d 95 bd
       -0.09022879 0.09559231 -0.068540014 -0.07293291
000300 6b 6b 22 3d 07 e4 34 bd 0d fe 2f 3d 1e 1e a0 3c
       0.039653223 -0.044162776 0.04296689 0.019545611
000310 c8 d0 e2 bc ae 8d 4f bc fe f3 f4 3d c9 61 c6 bb
       -0.027687445 -0.012668056 0.119606 -0.0060541374
000320 9d 76 48 bd a8 1b 9a 3d 59 48 e4 3d 18 52 a8 bd
       -0.048941243 0.07524806 0.11146612 -0.08218783
000330 14 95 04 3e 33 04 d2 bc 29 6f 02 bd b0 44 9b bc
       0.12947494 -0.025636768 -0.03184429 -0.018953651
000340 31 d1 f8 bc c9 83 4e 3d c5 1b 88 bd fe 45 ac 3d
       -0.030373188 0.05041865 -0.066459216 0.084117875
000350 cf ed aa bd f8 18 a8 bd 52 a0 6d bd ae 5f e3 bc
       -0.0834614 -0.082078874 -0.05801422 -0.027755585
000360 7f 1d 89 3c 8e b6 c1 3c cb 89 4e 3d 06 0e 38 3d
       0.016737698 0.02364662 0.05042438 0.04493525
000370 71 48 a0 bd bf eb d1 3d 6c fa 4b bd f5 8d 03 3e
       -0.07826317 0.10250043 -0.049799368 0.12847121
000380 c4 58 cd bd dd 5f 6d bc a0 47 90 bc 7c eb 18 bd
       -0.10026696 -0.014488188 -0.017612278 -0.03733395
000390 c8 82 72 3d cb 90 07 3d 49 87 f1 3d 52 d8 a7 bd
       0.059206754 0.03309707 0.11793382 -0.08195557
0003a0 2e bb 9a bd 42 30 ed 3d b2 20 96 bd f5 1d 1a bd
       -0.07555233 0.1158147 -0.07330455 -0.037626226
0003b0 0a 4d ab bd 92 84 33 bd 9d 91 9d 3d f7 b7 ba 3d
       -0.083643034 -0.0438276 0.07693789 0.0911712
0003c0 32 ec b1 3d 6e 24 06 3e ed bf 87 bb 3e 36 a0 3d
       0.08687629 0.13099834 -0.0041427524 0.07822846
0003d0 c6 43 19 3d 64 41 be 3d 2c 95 c9 bd ad ba 0b 3e
       0.03741815 0.09289816 -0.098429054 0.1364543
0003e0 9f d3 55 bd 78 6c b8 3d 89 35 d3 bd e7 cf 28 3d
       -0.05220377 0.09005064 -0.103129454 0.041213896
0003f0 99 74 76 bd 53 51 a9 3d c2 a3 df bd f7 cd 61 bd
       -0.06016979 0.082674645 -0.10919906 -0.055128064

body.6.weight f4 [64, 64]
000000 f5 8a a3 bd 21 1e d8 bd dd eb 76 3d 91 ad 0a 3d
       -0.07985488 -0.10552622 0.06028353 0.033856932
000010 d9 53 fa bd c5 a2 46 3d 32 03 6a bd 93 c1 0a 3d
       -0.12223024 0.048495073 -0.057131954 0.033876013
000020 a3 f9 30 3d 3e 8f dd bc 62 8f 2a bd f6 ad 0e 3d
       0.043206822 -0.027045842 -0.041640647 0.03483387
000030 43 ef 21 bd 8f 72 03 be 72 81 e7 3d 88 d1 e1 bd
       -0.03953482 -0.1283667 0.113039866 -0.11026293
000040 7a 9d 6f 3c 57 e7 eb bc b0 8d ce 3d 33 42 8c bd
       0.014624948 -0.028796835 0.100856185 -0.06848564
000050 98 71 d2 3d 6d a3 65 bd f1 77 aa 3d 63 f5 14 bc
       0.102755725 -0.056064058 0.08323658 -0.009091708
000060 6d e1 8a 3d 3f 1e 7f bd 90 fe de bd 2a 75 bb 3d
       0.06781278 -0.062284704 -0.10888398 0.09153207
000070 5e c3 56 3b 85 f6 9a 3c 2a e4 8c bd c4 85 bc bd
       0.0032770257 0.018916378 -0.06879456 -0.09205201
000080 bd 3e 08 3d aa 6b 82 bd 66 61 70 3d 06 80 f5 3c
       0.033262957 -0.063681915 0.058686636 0.029968273
000090 2b 4c 00 3e d5 3a 55 bb 2f ff 99 bd bc d8 39 bd
       0.12529056 -0.0032536287 -0.075193755 -0.04537271
0000a0 07 a1 78 3d c0 51 00 3e dc 9b 1a bd b8 72 0e bc
       0.060700443 0.12531185 -0.037746295 -0.008694343
0000b0 ec 91 ec 3c 57 09 f8 bd 6d 4a ca bd 0a a8 c1 bc
       0.028878175 -0.121111564 -0.09877477 -0.023639698
0000c0 e4 71 11 bb d7 88 f7 bd dc 94 23 bc f0 a3 b7 bd
       -0.0022193128 -0.12086647 -0.009984221 -0.089668155
0000d0 66 41 19 bd 8f 99 03 bd 7e 5e d5 3a 6d 6e d3 3c
       -0.037415884 -0.032128867 0.0016278771 0.025809491
0000e0 f4 77 f2 3d d2 9b 8c bd 06 9b cd 3b 3a 55 34 bb
       0.118392855 -0.06865658 0.0062745837 -0.002751662
0000f0 4f 0e 99 bc 8a 2a cb 3d 97 0a c3 bd 42 65 00 be
       -0.01868358 0.09920223 -0.09523504 -0.12538627
000100 46 c4 e1 3d 7f ef b3 3c 29 69 fd 3c 6b 0c cd 3b
       0.11023764 0.021964787 0.030933933 0.006257584
000110 74 09 fd 3c 66 62 b3 bd cc 2b 81 bb 07 06 34 3c
       0.030888297 -0.087590024 -0.0039419886 0.010987765
000120 f8 25 4c 3d ea 20 b9 bc dd ca 41 3b ce b5 c1 3d
       0.049840897 -0.022598702 0.0029570379 0.094585046
000130 c0 5d b0 bd ca 38 93 3d a4 f1 e3 bd 41 dd d1 bc
       -0.086116314 0.07188566 -0.11130074 -0.025618197
000140 2d 6d 00 3e 50 37 49 bd 5a 15 5e 3d 2f 67 d1 bd
       0.12541647 -0.049125016 0.05421958 -0.10224759
000150 13 30 91 3d 91 d9 96 3d 54 52 57 3c 2a fc 9e bd
       0.070892476 0.07365716 0.013142187 -0.0776294
000160 27 bf b9 3d f6 92 58 bd b2 02 f4 bb 64 e6 b9 bd
       0.090696625 -0.052874528 -0.0074466104 -0.09077147
000170 d5 b5 82 bd 83 05 59 3c 13 a5 da bd 13 f9 d7 3d
       -0.06382338 0.013245943 -0.10676017 0.10545554
000180 09 24 a8 3d 4e c6 68 bc f8 d8 8c bd 1d ae 73 bd
       0.08209998 -0.014207436 -0.06877321 -0.05949222
000190 31 12 8c 3c 28 9e 14 3d 48 ce bc 3d 78 b2 97 3d
       0.017098518 0.036283642 0.092190325 0.07407087
0001a0 6a 32 1e bd 07 62 70 bd 62 e9 95 ba 7a 02 b9 3d
       -0.038622297 -0.058687236 -0.0011437351 0.090336755
0001b0 ff 93 15 bc b1 65 e0 bd a3 33 56 bd 23 60 52 3d
       -0.009129523 -0.10956896 -0.05229534 0.051361214
0001c0 8d 63 f2 bd f1 dd 98 bd dc f4 d8 3d 08 5c f3 3d
       -0.11835394 -0.07464207 0.10593578 0.11882788
0001d0 60 16 ca 3c 85 62 bb 3c fa 1a 08 bd 6e e1 0e 3d
       0.024668872 0.022874126 -0.03322885 0.034882955
0001e0 7c b1 d4 3d 1a 54 62 3d 39 c0 38 bc 16 2f f5 bc
       0.10385415 0.055255987 -0.011276298 -0.029929679
0001f0 d3 aa 69 3d 31 35 e9 bd e1 e2 80 3d fb 59 90 3d
       0.057047676 -0.113870986 0.06293274 0.070484124
000200 96 ec d7 3d 5e 9c 86 3d 5b 86 98 bc 71 6e b8 3d
       0.10543172 0.065727934 -0.018618753 0.0900544
000210 4c dc da 3d 5c f8 e8 3b 56 fa 62 3d 97 9d f5 bd
       0.106865495 0.007109685 0.05541452 -0.119929485
000220 37 d2 bd 3d cd 85 bc bd 09 75 d2 3d 5f 44 07 3e
       0.09268611 -0.09205208 0.10276229 0.13209675
000230 0b fe 59 bd 2d b0 94 bc 9e 7e e1 3d 37 38 00 3e
       -0.05322079 -0.018150413 0.110104784 0.12521444
000240 ef 4b 7b bd ef 1f 8a 3c 1c f7 cb 3d 11 a9 90 bd
       -0.061351713 0.01686093 0.09959242 -0.07063497
000250 f6 86 e1 3d 62 62 1d bd 25 35 89 bd a8 22 34 3c
       0.1101207 -0.038423903 -0.0669959 0.010994591
000260 37 2d 99 bc aa ae b3 3d 95 0c 9b bc bd f7 fc 3d
       -0.018698318 0.08773549 -0.018926898 0.1235194
000270 36 a6 3e bd ad 84 85 3c a1 38 8c 3c 61 57 90 3d
       -0.04654523 0.016298616 0.017116847 0.07047916
000280 08 4e 0f 3d d1 f8 11 bd 34 24 0a 3d f5 ca a2 3d
       0.034986526 -0.03563768 0.033725932 0.07948867
000290 b0 37 b1 ba 89 22 31 3d a2 b2 34 3c e3 35 4a 3d
       -0.0013520624 0.043245826 0.0110289175 0.049367797
0002a0 a7 6f 09 3d 01 03 05 3d 53 f6 52 bd d5 06 98 bc
       0.033553746 0.032473568 -0.051504444 -0.018557945
0002b0 dd 1f 17 bc 48 d4 4d 3d 70 df 9d 3d 7c b2 e8 3d
       -0.009223905 0.050251275 0.07708633 0.11362168
0002c0 ee 30 53 bd 00 9e 89 3d a4 52 2d bc ea f5 a5 bd
       -0.051560335 0.06719589 -0.010578785 -0.08103545
0002d0 eb 87 9f 3d 07 5f 24 bd 59 1b 99 bc ca 39 4e 3d
       0.07789596 -0.040129688 -0.018689798 0.05034808
0002e0 b7 99 0d bd 3e 0c 09 3d 98 b3 d4 3a dc d6 c9 3d
       -0.034570422 0.03345894 0.001622784 0.09855434
0002f0 b6 1d a4 3d 9f 3d d2 3d 19 d5 dc 3d fb 96 3c bd
       0.080134794 0.102656595 0.10782833 -0.046042424
000300 5d a8 2a bd f9 9f 00 be 54 67 a8 3c 1a 38 8e 3d
       -0.04166447 -0.12561025 0.020557083 0.06944294
000310 68 93 bc bd 19 37 c3 3d 9e 87 67 bd 93 c6 7a 3d
       -0.09207803 0.095319934 -0.05652582 0.06122453
000320 8f d2 a3 3c 42 f6 bc bd 4b 57 90 3d b2 4c 7d 3d
       0.019997863 -0.092266575 0.070479 0.06184072
000330 2b 10 08 be 37 8a b4 bd b1 41 c0 bd 88 ec df 3d
       -0.13287418 -0.08815425 -0.0938753 0.10933787
000340 30 f6 f4 3d 68 0d e9 3c ce 94 7e 3d de b5 a5 3d
       0.11961019 0.028448775 0.06215363 0.08091329
000350 83 0d b4 bc 4e 82 9c 3d 45 d8 89 bc fc cf f7 bb
       -0.0219791 0.07642041 -0.016826758 -0.0075626355
000360 9f f2 2b 3d 99 eb 92 3d e9 0a 22 bc 59 93 36 3c
       0.04197943 0.07173843 -0.0098902965 0.011143529
000370 53 f2 89 bc 7f 0e 53 bd 3a ed b7 bd 01 a3 ae bd
       -0.016839182 -0.051527496 -0.08980794 -0.08527184
000380 8a ee cb 3c 04 f9 24 3d 68 4d 1b 3c d7 f1 4d bc
       0.024894018 0.040276542 0.009478904 -0.012569866
000390 dd 19 37 bd 8b e9 c2 bd 4a 1d 8c 3d df 64 a4 bd
       -0.0447024 -0.09517201 0.06841524 -0.08027052
0003a0 3a cd 9c bc 1b 21 67 3d f0 9f 2a 3d ec bc db bc
       -0.019140828 0.056428056 0.041656435 -0.026823483
0003b0 63 71 07 3d 48 eb f9 bc 94 ff 60 3d 56 bb e5 bd
       0.03306712 -0.030507699 0.05493124 -0.11217372
0003c0 23 cb db bc bc 5f a2 bc 6d 31 c4 bd 29 3c ef 3d
       -0.026830262 -0.01982104 -0.0957974 0.116813965
0003d0 c7 ca 8d 3d 32 44 05 bd a6 cb dc 3c 0f bf 54 bd
       0.06923442 -0.03253574 0.026952576 -0.05194002
0003e0 4d f4 90 3c d1 d3 8b bd 5e a7 62 3d 49 c3 93 3b
       0.017694617 -0.0682751 0.055335395 0.004509364
0003f0 6c 25 dd bd 23 0c c1 3d 60 21 ef bd 7c cf 1b 3c
       -0.10798153 0.09426143 -0.11676288 0.009509917

body.8.weight f4 [64, 64]
000000 22 1c 82 3c 24 23 29 bd 39 c8 7e bd 50 fa b5 bd
       0.015882555 -0.04129328 -0.062202666 -0.08885634
000010 b0 53 91 3c 03 a4 6b bd ec 85 c5 bc 94 14 d3 3d
       0.0177401 -0.05752946 -0.02411171 0.10306659
000020 94 5c f3 bd ff 78 df 3d cb 5d a6 3c 61 5b dd bd
       -0.11882892 0.1091175 0.020308396 -0.10808445
000030 45 b5 dd 3b c5 a8 da bd 3e 6a 86 bd 6e f8 d6 bd
       0.006765994 -0.106767215 -0.06563233 -0.10496603
000040 8e 9d 3a bd 8f 4a 69 bc b0 1e b3 bd e8 20 96 3d
       -0.045560412 -0.014238968 -0.087460876 0.07330495
000050 6b 37 54 3d 58 f7 cf 3d d9 1c 7c bb 18 7a 73 3d
       0.051810663 0.10154599 -0.0038469343 0.05944261
000060 15 6c ac 3d 28 8e 1d bc 6a 42 e5 bc 79 c6 30 3c
       0.084190525 -0.009616412 -0.02798577 0.010789507
000070 d1 39 a7 bd 74 d6 c4 bc 6b 51 ae 3b 7f e2 b6 bd
       -0.081653245 -0.02402804 0.0053197644 -0.089299195
000080 41 2d af 3d 93 eb 1c bd 57 98 6e 3b e8 a1 d0 39
       0.085535534 -0.0383106 0.003640672 0.0003979348
000090 cc 58 89 bd 52 c4 5a bd e4 64 b9 bd 78 e8 f7 3d
       -0.0670639 -0.053409882 -0.090524465 0.12104887
0000a0 d3 78 06 bd 93 3f 95 3d 2a 27 b9 3d 5f 5d ca bd
       -0.03283007 0.072875164 0.09040673 -0.098810904
0000b0 b4 ca 01 be d1 9e 21 3d c5 dc 22 3d 0a a2 2d 3d
       -0.12674981 0.0394581 0.039761323 0.04239086
0000c0 45 8f 0f 3d 3e 1e ac bc 3b b4 cc bd 7b e9 91 bd
       0.03504874 -0.021010514 -0.09995314 -0.07124611
0000d0 19 f2 89 3c 67 45 a3 bd ca cf 2a bd 98 61 a9 bd
       0.016839074 -0.07972222 -0.04170207 -0.08270568
0000e0 36 3f 2f 3d d3 ee ca 3d f7 8c 07 be f2 2e fe bd
       0.042784892 0.09908833 -0.13237368 -0.12411298
0000f0 64 5a 86 3d 20 3e a2 3d 16 dc df bd ee eb e7 3c
       0.065602094 0.07922006 -0.1093065 0.028310742
000100 d6 59 c9 3c 51 f0 83 bd 7e 62 ad bd 79 e5 e0 3d
       0.02457897 -0.06442321 -0.084660515 0.109812684
000110 d7 1d 7a 3d a4 c3 30 3d 19 e6 54 3c b0 e5 04 3d
       0.061063614 0.043155327 0.012994313 0.03244561
000120 15 42 a7 3c fd 50 06 3e 2c cb 56 bd c9 85 16 3c
       0.020417253 0.13116832 -0.052439854 0.00918717
000130 e9 b4 11 3d 37 52 03 3e 8a fe 4b bd 89 c1 61 3d
       0.03557292 0.12824331 -0.049803294 0.05511621
000140 cb 8a 1d 3c 98 48 14 3d f3 74 60 3d 3d 23 ad bd
       0.00961561 0.036202043 0.05479903 -0.08453987
000150 3b 30 a9 3d ae dc 8e bd e6 1e a9 bd f1 60 ca 3d
       0.08261152 -0.06975685 -0.082578465 0.09881771
000160 4e 0b c4 bd 38 c0 8b 3c cb 59 2e 3d ff 42 4e bd
       -0.09572469 0.01705943 0.042566102 -0.05035686
000170 6d 04 ed bd 9f e6 01 3e 9e a5 b4 bd 2c 73 44 bd
       -0.1157311 0.12685631 -0.088206515 -0.0479614
000180 43 2f 18 bd e4 a8 24 bc d5 55 13 bd 98 a1 1e 3d
       -0.037154447 -0.010050032 -0.035970528 0.038728327
000190 25 55 1d bd ad 70 f1 3d ca b6 a9 3d 58 88 c2 3c
       -0.03841128 0.11789069 0.08286817 0.023746654
0001a0 64 97 8e bc f8 e5 5b 38 26 7b a5 3c 3b 77 e9 bc
       -0.017406173 5.2427844e-05 0.020200323 -0.028499236
0001b0 69 17 f4 3b 19 8c 17 bd 6b 1c 8d bc b2 d0 ee 3d
       0.00744908 -0.036998842 -0.017225465 0.11660899
0001c0 bf 93 ab 3d 61 56 2c 3d ec cd d8 bd 3b d2 d5 bd
       0.0837779 0.042074565 -0.105861515 -0.10440489
0001d0 6e 30 d5 3c fd 14 8f bd 64 7c b6 3d fb 6a a3 3d
       0.02602407 -0.06986425 0.089104444 0.07979389
0001e0 80 04 97 bd 04 42 db bd eb 93 4f bd 58 fc 80 3d
       -0.07373905 -0.10705951 -0.050678175 0.06298131
0001f0 b9 83 b3 bd 96 0a b5 bc 70 88 b5 3d c7 42 c3 bd
       -0.087653585 -0.022099774 0.08863914 -0.09534221
000200 dc be fc bd 62 d4 29 bd 7e 98 8a 3d 63 9a 81 3d
       -0.12341091 -0.04146231 0.06767367 0.06328275
000210 ec 4d b5 bd 50 52 0c be 51 12 b6 bc bd ce e2 3d
       -0.08852753 -0.13703275 -0.02222553 0.110745884
000220 35 73 5c bd 02 77 f3 3c 43 15 93 3d aa 56 0a bd
       -0.053820807 0.029719833 0.0718179 -0.033774056
000230 18 5e ef bd f1 61 3e 3c 3b f6 6d 3d 81 1d 88 3c
       -0.11687869 0.011620031 0.05809615 0.016615631
000240 01 97 8b 3d 22 f5 cb bc aa 06 0c bd bd cd f6 bd
       0.06815911 -0.024897162 -0.034186043 -0.1205096
000250 98 91 a2 3d ca f9 6d 3d fa 0a 2d b9 81 86 9b 3d
       0.07937926 0.058099546 -0.00016502655 0.07594014
000260 82 4f 17 3c 73 54 ba 3d fe 9c e2 3b 9b 5d 70 3d
       0.009235265 0.09098139 0.0069156876 0.05868302
000270 0a d9 61 3c 11 72 e8 bc e4 96 49 bd a1 ab 2f bd
       0.013784656 -0.028374704 -0.049216166 -0.042888287
000280 77 08 dc bd 19 02 e0 bd 15 fc 61 3d f1 10 9c 3d
       -0.10743802 -0.109379 0.055172045 0.07620419
000290 f2 08 fc 3c 53 47 c0 bd e9 80 31 3d 35 03 e1 3c
       0.030765984 -0.09388604 0.04333583 0.02746735
0002a0 a1 ab c9 3c 89 0f d9 3d 97 23 7d bb ce 48 b8 3d
       0.024617972 0.10598666 -0.003862595 0.089982614
0002b0 a4 d3 58 bd ad 28 fc 3c a4 4f 85 3d 8d 7a da 3d
       -0.05293621 0.030781114 0.06509331 0.10667906
0002c0 1b 46 df bd b4 22 a3 3d f6 b3 0d bd 2c f4 a3 bd
       -0.109020434 0.079656035 -0.034595452 -0.080055565
0002d0 ab 54 32 3d 88 af 3d bc 4d 77 e5 3d 1a 14 56 3a
       0.043537777 -0.011577494 0.112043954 0.00081664475
0002e0 a8 4b 9d bc ee 90 9b 3d ef 8d 8c bd 2f b3 26 bb
       -0.019201115 0.075960025 -0.06863009 -0.0025436392
0002f0 bf dc 2e 3c ea 77 79 3c bd 5b 98 3c 58 08 eb 3d
       0.010672747 0.015226344 0.018598432 0.11476201
000300 ac 0d cb bd fd 32 de 3d d3 ef 0a be a5 c7 bd 3d
       -0.09914717 0.10849569 -0.13568048 0.09266595
000310 35 d0 92 bd 6a 3f 8f 3d 5d 9b 93 3d ba 52 dd bd
       -0.071686186 0.06994517 0.072073676 -0.108067945
000320 84 b5 82 bc 36 30 f7 3d 4e 9f 8e bd ca 9e af 3d
       -0.015955694 0.120697424 -0.06963979 0.085752085
000330 22 15 0d bd 90 a3 f8 bd 9d 1a 9a bc b6 e0 f3 bd
       -0.034443982 -0.12140572 -0.018811518 -0.119080946
000340 eb cc 27 bb 20 01 35 3c 34 75 00 be 65 96 b1 3d
       -0.0025604318 0.0110476315 -0.1254471 0.086712636
000350 e7 71 00 bd d3 38 dc bd 53 3f a5 bd d1 b3 c6 bb
       -0.031358626 -0.10753026 -0.08068719 -0.0060639163
000360 6d e7 f3 3d d6 fb d3 3c f5 fa cf 3c 0d a7 bc 3c
       0.11909375 0.02587692 0.02538822 0.023028875
000370 2e 59 a5 bd 94 e5 e5 bd 39 b8 00 3d d8 15 8d bd
       -0.0807365 -0.11225429 0.03142569 -0.06888932
000380 3a 53 2b bd ed be 9e 3d e6 99 b8 bd 3b e1 a7 bc
       -0.041827418 0.0775126 -0.09013729 -0.02049314
000390 ee 83 c7 3b 83 db 91 3c b4 cd ab 3d bc 70 d6 3c
       0.0060887253 0.017804867 0.08388844 0.026176803
0003a0 e5 db ae 3c c1 9a 8a 3d ca 28 e7 3c 8a c7 f3 bc
       0.021345088 0.06767798 0.028217692 -0.029758234
0003b0 59 0a f4 3b 8f 07 e1 bd c3 35 d7 3c f2 dc 94 3d
       0.0074475226 -0.1098777 0.026270753 0.072687045
0003c0 ba 60 2c 3d c3 d4 10 be ee ba b1 bd 9b 73 23 3c
       0.042084433 -0.14143662 -0.08678232 0.009976293
0003d0 ed 04 50 3d 1b 5e 77 3d 2c be d9 bc cb 63 bb 3c
       0.050785948 0.06039248 -0.026579939 0.022874733
0003e0 ba 58 11 be 6d 4d ca 3c 3b 2a 62 bd 39 31 b6 bd
       -0.14194003 0.024695123 -0.055216055 -0.08896107
0003f0 e8 02 10 be af f7 0d be b1 f4 51 3d 77 37 46 bc
       -0.14063609 -0.13864015 0.051258747 -0.012098185

policy.0.weight f4 [64, 64]
000000 31 bb 7c 3d 1f e3 f8 3d 17 ab 2b 3d 07 19 ce bd
       0.061701957 0.12152695 0.04191121 -0.10063367
000010 3f ad 4f bd a4 5a 78 bd 17 a2 e4 3d 57 80 1d 3d
       -0.05070233 -0.060633317 0.11163729 0.038452473
000020 6f d2 1d bc d7 0a 3d 3d 94 6b cf 3d a4 9f b7 3d
       -0.009632691 0.046152916 0.10127941 0.08965996
000030 4b 05 30 3d 7e 0a fb bc 14 91 f8 bd 3f 9d 7a bc
       0.042973798 -0.030644652 -0.121370465 -0.015296279
000040 f7 5b 6c bd 4c 74 9d 3d 28 bc 8a 3d b0 c1 c6 3d
       -0.057704892 0.076881975 0.06774169 0.09704912
000050 3e 3b 32 bd 61 25 38 3d b4 c7 4b 3d 18 08 ed 3d
       -0.04351353 0.044957522 0.049751 0.115738094
000060 1e 22 95 3d 74 5f aa bc 61 2a cc 3d e1 54 e1 3d
       0.07281898 -0.020797469 0.09969021 0.110025175
000070 af 7b 09 bd 4f f9 cc bd 01 b2 e3 bd a3 d6 a4 3d
       -0.03356522 -0.10008489 -0.11117936 0.08048751
000080 9f 7f 5c 3c cc 9c 14 3d 49 86 11 3d 23 94 8a bd
       0.013458162 0.036282346 0.035528455 -0.06766536
000090 5e 90 9d 3d df a0 b3 bd e5 8e ee bd 35 ab 43 bd
       0.076935515 -0.08770918 -0.11648349 -0.047770698
0000a0 80 f2 6a bd 8a 9e 81 3c ae 8e 5e 3b 23 fa d9 3d
       -0.057360172 0.015822668 0.0033959555 0.10643413
0000b0 af 6d e2 3d 97 8a 7e bd 34 a1 0c 3d d9 9b 77 bd
       0.11056077 -0.06214389 0.034333423 -0.060451362
0000c0 2e af 7a bd e3 6b e1 3d 39 ae 85 3d 49 15 16 3d
       -0.06120222 0.11006906 0.06527371 0.036641393
0000d0 4d 0f f5 bd 7e 09 36 3c 53 1b 91 bd 8b 07 36 3d
       -0.11965809 0.011110662 -0.0708529 0.044440787
0000e0 68 d0 9e bd 39 4c 89 3d 99 ef e6 bc 42 8b f7 3c
       -0.07754594 0.067039914 -0.028190421 0.03021777
0000f0 ef e1 54 3c ee 23 a7 bd 5b 21 ca 3d 19 35 f0 bd
       0.01299332 -0.0816115 0.09869643 -0.117288776
000100 cc 39 42 3d 0c 7e 0e bd 38 04 88 bc 85 db b0 bd
       0.0474184 -0.034788176 -0.016603574 -0.0863562
000110 a4 46 62 bd 6b c0 dc 3d 28 66 be bd 55 38 e0 bd
       -0.05524315 0.10778888 -0.092968285 -0.109482445
000120 f6 99 42 bd f2 98 24 3d 63 41 cf bc e2 a5 f6 3d
       -0.04751011 0.040184923 -0.025299734 0.120433584
000130 1e a2 09 3b d3 7b e1 3d 3d 81 bf 3d 56 f6 1d bd
       0.002100117 0.11009946 0.09350822 -0.038565002
000140 6f 20 f1 bd 91 99 34 3d 10 06 d9 bd 14 89 5f 3d
       -0.11773764 0.044091765 -0.105968595 0.054574087
000150 1e 2f f8 bd 64 97 db bc b1 fd f2 3d 1d b5 cf bd
       -0.12118362 -0.026805587 0.11864794 -0.101419665
000160 0d e4 0e 3d 7b d0 ff bb 41 32 ee 3d a2 09 61 3d
       0.034885455 -0.007806835 0.11630679 0.054940827
000170 e0 f1 01 3d ee eb ed 3d 6e 08 39 bd 4e 9e b8 bb
       0.03172481 0.11617266 -0.045174055 -0.0056341058
000180 9b f7 cb 3d fe 81 70 bd 68 38 83 bd 84 ed e3 3d
       0.09959336 -0.05871772 -0.06407243 0.11129287
000190 9e 13 b4 bc 63 11 9a bd 34 a8 55 bd 53 7f f3 3c
       -0.02198201 -0.075228475 -0.052162364 0.029723799
0001a0 44 14 d5 3d bd dc cb bd 2c d3 ee 3c c4 6d c0 3c
       0.10404256 -0.09954212 0.029153429 0.02348984
0001b0 17 6e 2d 3d 46 b3 f2 bd 72 bd d2 3d 32 70 11 3d
       0.042341318 -0.118506 0.1029004 0.03550739
0001c0 b1 d8 fd 3d d6 ff 8b bd aa 8d 96 3d b7 66 c6 bd
       0.12394846 -0.06835906 0.07351239 -0.0968756
0001d0 ce d9 08 3d 31 e8 73 3d da 6e a6 bd cb 6b f1 3d
       0.03341084 0.059547607 -0.08126612 0.11788138
0001e0 4d 24 85 3d 3e 22 23 ba 10 61 82 bc 74 90 fc bd
       0.065010644 -0.0006223059 -0.015915424 -0.1233224
0001f0 12 92 06 bd 89 13 7b bd 30 22 a3 3d 60 0f 12 3d
       -0.032854147 -0.061297927 0.07965505 0.035659194
000200 f5 6b 4f bd 92 6e a6 bd 7d 54 55 3d f7 34 cd 3d
       -0.050640065 -0.08126558 0.052082527 0.10019868
000210 3a 70 46 bd 61 3e a2 bd 0b a8 d5 bd 60 42 3e bd
       -0.04844687 -0.07922054 -0.10432442 -0.04645002
000220 e8 3d 0f bc 21 f8 92 3d 28 0f 74 bc 24 03 04 3d
       -0.008742787 0.07176233 -0.014896192 0.032229558
000230 1f b0 b7 bd f3 0a a8 bd 70 a0 17 3d 9b a6 70 bd
       -0.08969139 -0.082052134 0.03701824 -0.058752637
000240 50 ee 20 3d 7e f7 13 bd 49 5f 7a 3d e2 b0 e7 3d
       0.039289773 -0.0361247 0.061126027 0.113130346
000250 4f 12 72 3d e3 02 ad bd 56 1d 9d bd a9 8d fc bd
       0.05909949 -0.08447816 -0.07671611 -0.12331707
000260 7e 2b b4 bc 2a c9 a8 bd 7d 11 a8 3b 2b 44 89 bd
       -0.021993395 -0.08241494 0.005129038 -0.06702455
000270 99 86 82 3d 8e 34 ad bd d2 e9 5b 3c 40 08 bf bc
       0.06373329 -0.0845729 0.013422446 -0.023319364
000280 35 74 94 3c 9b d0 d9 bd 5a 3f 50 3d a4 48 a3 bd
       0.018121818 -0.106354915 0.050841667 -0.079728395
000290 8a c6 5e bd c4 be b2 bd 05 d2 31 3d 7c a3 c3 bd
       -0.05438856 -0.08727792 0.04341318 -0.095526665
0002a0 b1 c4 f1 bb 5d 48 69 3d 7c 0b 8e 3d 5d 7d 4c bc
       -0.007378184 0.056953777 0.06935784 -0.012481061
0002b0 f5 00 b9 3d 34 62 e2 bd 8f d1 ce bd 44 44 3e bd
       0.09033386 -0.11053887 -0.10098564 -0.046451822
0002c0 13 ac 9a bd 28 b4 c9 3d 7e fb cd bb c8 42 49 bd
       -0.07552352 0.09848815 -0.0062860837 -0.049135953
0002d0 1e 49 b3 bc b2 c6 53 bd 56 e6 e3 bd 19 e1 2b 3b
       -0.02188545 -0.051703162 -0.111279175 0.0026226698
0002e0 97 9b 81 3c 50 bf e7 3d a6 c8 94 3d 00 7f 91 3d
       0.015821261 0.11315787 0.07264833 0.071043015
0002f0 68 e8 5f bd 62 b0 fa 3d 5c 4e fb 3a ff 55 90 3c
       -0.054665 0.122406736 0.0019173133 0.017619131
000300 2d f4 d1 3d a6 58 1a 3d eb 65 b3 bd 6c 62 32 bd
       0.10251651 0.037682198 -0.08759674 -0.043550894
000310 68 0a 36 3c 21 d6 e7 3c 28 65 d3 bd c3 2b a4 3d
       0.0111108795 0.028300347 -0.103220284 0.080161594
000320 14 ce 02 be f2 ad fd bd 47 07 72 3d 8d 74 aa 3d
       -0.12773925 -0.12386693 0.05908897 0.083230115
000330 fd 2e c0 bd b4 3f 5f bc c3 1e 20 3d 47 d8 e1 3d
       -0.09383962 -0.013626028 0.039091837 0.1102758
000340 61 53 0c 3a 10 2c cf 3c fd 5a 8a bb 34 73 bd bc
       0.00053530006 0.025289565 -0.0042222724 -0.023126222
000350 2f f9 99 bb 49 a4 5d bd 5b a9 a0 3d 20 50 f3 3d
       -0.0046988945 -0.054111753 0.07844802 0.11880517
000360 c5 0a 77 3d 41 b6 ac 3d 31 e5 be 3d 76 98 a0 bc
       0.060313005 0.084332 0.093210585 -0.019603949
000370 a7 be ad 3d 5a 98 8c bd 0f 66 8f 3d 71 24 f1 bb
       0.0848363 -0.06864996 0.07001888 -0.0073590805
000380 99 30 92 3d 3d 18 e0 3d 81 1f 25 bd 3f 0a 34 3d
       0.071381755 0.10942123 -0.040313248 0.043955084
000390 0a 71 7e 3d 52 e1 b9 bc 5f a0 e7 bc 3e 06 7c 3d
       0.06211952 -0.022690449 -0.028274713 0.06152939
0003a0 ad 1d 39 3c 15 07 57 bd 25 7c 46 bd 4d cc 26 3d
       0.011298579 -0.05249699 -0.048458237 0.04072218
0003b0 33 d0 be bb e9 bc c8 3d ab 00 6a 3d 56 aa cb 3d
       -0.005823159 0.09801657 0.057129543 0.099445984
0003c0 07 37 a0 bd bf f8 c9 bd e6 e3 f7 bd 68 d0 ce bd
       -0.07822996 -0.09861898 -0.12104015 -0.10098344
0003d0 e1 de 88 bd 92 44 e1 bd f7 96 d4 bd 22 eb 98 bd
       -0.06683136 -0.10999407 -0.10380357 -0.07466723
0003e0 cc 9c ef 3d 1c db 90 bd d4 4a c1 3d f5 d1 e0 bd
       0.116998285 -0.07073042 0.094381005 -0.10977546
0003f0 c4 0d 51 3d f5 2a a4 3d f1 dc 32 bd 96 a7 c0 bd
       0.05103852 0.08016006 -0.043667737 -0.094069645

policy.2.weight f4 [23, 64]
000000 7e d7 8c bd d1 21 69 bc 56 b1 b5 3d 7e 8e 07 3c
       -0.068770394 -0.014229254 0.08871715 0.008273719
000010 51 76 9c bc e3 ea f4 bd a0 b7 72 bd 8d 80 a3 bd
       -0.019099386 -0.119588636 -0.05925715 -0.079835035
000020 67 bc c6 3d 0c cd a3 3c f2 26 41 bd 9c 81 bd bd
       0.09703904 0.019995235 -0.04715628 -0.09253237
000030 9c a3 96 3d 1e 06 64 bd 7c 08 2e 3d 33 03 da bd
       0.07355425 -0.055669896 0.04248856 -0.106451415
000040 d8 45 a5 bd d9 21 e0 3d 92 d4 e5 3d 5e b6 b5 bd
       -0.08069962 0.10943956 0.11222185 -0.088726744
000050 34 46 57 bd 39 36 c4 bd c2 00 8f 3d 70 33 a5 3c
       -0.052557185 -0.09580655 0.069825664 0.020166129
000060 27 a9 3a 3d b0 89 55 3d 79 9d 5e bd 4e 48 ba 3c
       0.045571472 0.052133262 -0.054349396 0.022739556
000070 50 14 ee 3d 51 6a 5d 3d 51 2e ba 3d c1 2b b6 3d
       0.11624968 0.05405647 0.090908654 0.08895064
000080 ff 2d f9 bd cd b3 ff bd e1 b0 77 bd 5c a4 99 ba
       -0.12166976 -0.12485466 -0.06047142 -0.0011721957
000090 8f f8 21 bd 45 a8 07 3d cb ce ef 3b aa db c0 bd
       -0.039543685 0.03311946 0.007318353 -0.094168976
0000a0 c7 42 7e 3d 64 64 7a 3d b7 e4 e2 bd 87 c9 1f 3d
       0.062075403 0.061130896 -0.1107878 0.03901055
0000b0 ac 96 73 bd 6b 6c b5 3d 73 55 ae 3d f9 d6 24 3d
       -0.059469864 0.0885857 0.08512392 0.040244076
0000c0 34 6a f7 bc 82 06 a0 3d a6 f3 1d bd d7 1c ee bc
       -0.030202009 0.07813741 -0.03856244 -0.029066486
0000d0 5c 5f 1e 3d e0 38 fd 3b 41 fd e9 3d b1 3a b9 bd
       0.03866516 0.0077277273 0.114252575 -0.090443976
0000e0 50 6f de 3c 17 07 5c bd e9 29 83 3d c1 6a 58 bb
       0.027152687 -0.0537177 0.06404478 -0.0033022615
0000f0 23 28 c4 3d e6 df 94 bb e9 47 20 bd 9e a0 cc bd
       0.09577968 -0.0045432923 -0.03913108 -0.09991573
000100 df 75 09 3d c0 75 f9 3d 57 3b 2a 3c 5f 83 e4 bd
       0.033559676 0.12180662 0.010390124 -0.111578695
000110 47 33 73 3d ea 60 b9 bd 96 8a ac 3d ca b8 5d bc
       0.059375074 -0.09051688 0.08424871 -0.013532827
000120 5d 30 b9 bd 91 d5 a5 3d bc 22 db 3d e6 7c 3c bd
       -0.09042428 0.08097375 0.106999844 -0.04601755
000130 10 b5 a6 bd 77 1b 77 bb a8 af cb bd 7d 08 b3 3d
       -0.08140004 -0.003770558 -0.09945613 0.087418534
000140 f5 e2 a2 3d fd e0 99 bd 9a 77 a9 bd 8c 8f ec bd
       0.07953445 -0.07513616 -0.08274765 -0.11550817
000150 8d c5 1b 3d 1e f0 4f 3d e1 b4 82 bd 3c 73 ca 3d
       0.038030196 0.050766103 -0.06382156 0.098852605
000160 2c f5 b4 bd d8 56 9a 3d 10 ac a1 bd 10 21 bc 3c
       -0.08835825 0.075360954 -0.078941464 0.022964984
000170 34 c8 a0 bc e4 51 02 3e 63 71 78 3d 33 74 f0 3d
       -0.019626714 0.12726551 0.06065501 0.11740913
000180 1a 23 f6 bd ad 8a a5 bd 9a 0e f2 3d fd 26 58 3c
       -0.12018414 -0.08083091 0.11819191 0.013192889
000190 5e 31 59 ba bf ca 18 3d a7 53 5e bc 57 51 aa 3d
       -0.00082852494 0.03730273 -0.013569749 0.083162956
0001a0 db 13 41 bd 23 62 ca bd b9 34 9f bb bc 7a 4b bc
       -0.047138076 -0.09881999 -0.00485858 -0.012419399
0001b0 6b 8f 81 bd 5a 02 b7 bc 89 c1 e5 bd 94 98 7c bd
       -0.06326183 -0.022339988 -0.112185545 -0.061668947
0001c0 cb 52 b8 bd 5c 63 24 bd d7 f0 c1 3d 81 73 1f bc
       -0.090001665 -0.04013382 0.09469765 -0.009732128
0001d0 24 56 5a 3d df d8 7d bd 88 ae ac bb d9 86 e8 3d
       0.053304806 -0.061974403 -0.005269829 0.11353845
0001e0 49 a0 ec 3d 22 6a 1e ba b0 64 6b bd 8f ad b8 3c
       0.115540095 -0.00060430367 -0.05746907 0.022543697
0001f0 3b da bf 3d 55 37 7c 3d f1 dc a1 bd b6 69 0e bd
       0.09367796 0.061576206 -0.07903469 -0.034768783
000200 04 6c 41 3c 4d 27 2d bd 51 f8 33 3c 76 77 bf 3a
       0.011805538 -0.04227381 0.010984496 0.0014607746
000210 93 c2 a5 bd 91 81 74 bc 72 9f 13 bd 4e c2 de bd
       -0.08093753 -0.014923469 -0.03604073 -0.108769044
000220 f1 f7 d6 bd 59 eb ee bd 0c 68 a2 bc 18 4a b5 3c
       -0.1049651 -0.11665983 -0.019825004 0.022130057
000230 1d ba ff 3d 7c 5a 4b bd 9d 0c 14 3c 71 91 ac 3d
       0.1248667 -0.04964684 0.00903621 0.08426178
000240 52 a6 6e bc b0 2e a2 3d 60 39 18 3d 14 77 23 bd
       -0.014566021 0.07919061 0.037164092 -0.039908484
000250 80 00 7f 3d e1 4e 56 bd d1 ee a4 3d 14 a2 a0 3d
       0.062256336 -0.05232132 0.08053363 0.07843414
000260 2a b1 e2 3d 42 ab e6 bd 22 16 cc 3c 8d a8 bd 3d
       0.110689476 -0.112631336 0.024912897 0.09260664
000270 2e c6 c9 3d dd 27 86 3d a6 af 41 3c b5 35 28 bd
       0.09852253 0.06550572 0.011821663 -0.041066844
000280 5d 28 0e 3d 64 c0 a4 3c 90 0d fa bc 9a 7c eb bd
       0.034706462 0.02011127 -0.030524045 -0.11498375
000290 cf 8b 71 3d d0 a7 84 3d fc fd a9 bd 4b 3c 68 3d
       0.058971222 0.0647732 -0.08300397 0.056698125
0002a0 28 1a 98 3d 3a e8 68 bd fc 05 e5 bd 29 2e 40 3d
       0.07426864 -0.056862094 -0.11182782 0.04691902
0002b0 aa 3e 70 bd 45 d5 9f 3d 85 21 ef 3d 56 68 97 bd
       -0.05865351 0.0780435 0.11676315 -0.073929474
0002c0 42 39 86 bd 38 20 96 3c 18 6b b5 3d 39 7c bb bd
       -0.0655389 0.01832591 0.08858317 -0.09154553
0002d0 96 08 ec 3d d0 6c aa bd c1 6b b1 3d e8 83 e8 3c
       0.11525075 -0.083215356 0.086631306 0.02838321
0002e0 3a 13 72 bd 52 79 f6 3d c8 82 ce bd 22 7f aa bd
       -0.059100367 0.12034859 -0.10083538 -0.0832503
0002f0 2b 5f ac 3d fd f8 55 3c ef df e4 bd 41 1c 0b bb
       0.08416589 0.013059852 -0.111755244 -0.0021226557
000300 d4 31 de bc b4 94 a0 bd 48 c1 3d 3d 94 c4 db 3d
       -0.02712337 -0.07840863 0.046326905 0.10730854
000310 0a d6 9a 3d dc a6 64 bc 0f 57 81 bb 13 7d 1d bd
       0.07560356 -0.013955798 -0.003947146 -0.03844936
000320 7a e2 d9 bc aa 43 ae bd 43 40 75 3d 99 bd 65 bc
       -0.02659725 -0.08509 0.059875738 -0.014022254
000330 91 46 31 bc 4c 65 98 bd ed 91 b1 ba c7 b4 8f 3d
       -0.010820047 -0.07441196 -0.0013547518 0.070169024
000340 cc e9 36 3d 45 ac 04 be 1b f4 07 bd 13 b5 d9 3d
       0.04465656 -0.1295634 -0.03319178 0.1063024
000350 2f cf 0d 3d 5e a3 1d 3d 12 7a de 3d 77 8c 5b bc
       0.034621414 0.038485877 0.10863127 -0.013400189
000360 8d 98 5d 3d 16 7f bb 3d de 8b e9 3d bf 70 56 bd
       0.054100562 0.09155099 0.11403631 -0.052353617
000370 38 7c 70 3d 21 01 18 3d 14 a2 3c 3d 82 27 dc bc
       0.058712214 0.03711045 0.046053007 -0.026874308
000380 85 2e e9 3d 58 0a 0f bd f5 fd cd bd 1f 01 cd 3d
       0.11385826 -0.034921974 -0.10058204 0.100099795
000390 7a e2 b7 3d 23 2f 0b bd 1f 10 74 3d 1d 68 cb bc
       0.08978744 -0.0339805 0.059585687 -0.024829919
0003a0 e4 8e bf 3d f4 b0 7a bd a3 c1 4a bd 03 fc af 3d
       0.09353426 -0.061203912 -0.049501073 0.08592989
0003b0 5b 6e f2 3d 2b dc ad bd 3a 59 56 3d d3 59 b6 bb
       0.11837455 -0.08489259 0.052331187 -0.005564907
0003c0 c2 17 9e bc 0b df 58 bd e1 7d e8 3d 41 b0 f4 bd
       -0.019298438 -0.052947085 0.113521345 -0.1194768
0003d0 d3 7e a7 bd 03 06 23 3d 2f 4e 9b 3d b4 ad c1 39
       -0.08178487 0.039800655 0.07583272 0.00036941248
0003e0 90 c2 72 bd a2 cd b3 3d cb 27 9f bd e6 6b 8d 3b
       -0.05926758 0.08779456 -0.07771262 0.004315841
0003f0 be 69 d3 bd 45 46 d7 bd f4 34 74 bd e8 d7 9f 3d
       -0.10322903 -0.1051145 -0.059620813 0.07804853
